saved_model/model.pt (torch_old, 40839 bytes, 12 tensors)

log_std f4 [3]
000000 b8 d2 53 bf 42 c1 63 bf 4e 5f 79 bf
       -0.82743406 -0.88966763 -0.9741105

weight f4 [64, 3]
000000 e6 74 ae 3c 23 75 e5 3e 2a 89 db be 47 7b cc be
       0.021295976 0.4481593 -0.42878085 -0.39937803
000010 9a 38 9e be e4 f8 da 3e 13 40 09 3d a8 5a 1e 3f
       -0.3090256 0.42768013 0.03350837 0.6185708
000020 24 48 53 bd 37 b6 3f 3e 88 39 41 be 2b 00 93 3e
       -0.05158247 0.18721853 -0.18869603 0.28711066
000030 f7 6a 18 bf 13 6b d5 be f0 ed 41 3e c8 28 90 3c
       -0.59538215 -0.41683254 0.18938422 0.017597571
000040 5b 4e c6 3e 53 cf 71 3e 21 4e c2 be e0 d5 65 be
       0.38731655 0.23614244 -0.37950233 -0.22444868
000050 f7 ab 09 3f 04 3d 02 3f 9d e9 13 be 3b e1 c0 3e
       0.5377802 0.5087435 -0.14444585 0.37671837
000060 52 4f a4 bd b5 5b 3f 3e 26 ea 1b 3f 21 91 17 bf
       -0.08022942 0.18687327 0.6090416 -0.59205824
000070 e0 20 bd be 27 2c 86 be d1 7b 47 be 3e 02 06 3f
       -0.36939144 -0.2620556 -0.19480826 0.5234717
000080 1c cf 50 bd eb c9 87 be 73 80 b5 be 83 f1 1c be
       -0.050978765 -0.2652124 -0.3544956 -0.15326504
000090 0c 7a ab be 9c 95 f7 3e 4f d6 0f 3f 3b 31 9f 3e
       -0.33491552 0.4835633 0.56186384 0.31092247
0000a0 94 09 27 3d 46 df 0d bf e5 75 ef 3d 8a bf 24 bf
       0.04078062 -0.55418813 0.116924085 -0.64354765
0000b0 99 b9 a2 be 39 79 a6 be a5 4f 0c 3f 86 ed 3b 3d
       -0.31782225 -0.3251436 0.5480903 0.045880817
0000c0 38 69 98 be bf 73 c8 bb 28 1f 32 3e 03 0d 14 3f
       -0.29767776 -0.0061173136 0.17394698 0.57832354
0000d0 2a 86 8e 3e 91 3d 5e be 33 fd be 3e 4d 6f e9 be
       0.27836734 -0.21703173 0.3730255 -0.45592728
0000e0 d8 59 92 3e de 92 ec be 14 c0 e9 be 5f f5 8e bb
       0.2858417 -0.462058 -0.45654356 -0.0043627466
0000f0 69 c9 91 3e b0 19 aa 3e a1 4b 1b bf 7b 76 50 3e
       0.28473976 0.33222723 -0.60662276 0.20357697
000100 7d ee bf 3e 97 dd 84 bd 55 84 b6 3b 81 a0 5c 3e
       0.3748664 -0.064875774 0.0055699744 0.21545602
000110 bf 43 b5 3e 9e 82 13 3f 98 f3 07 bf 0e 03 79 be
       0.3540325 0.5762118 -0.5310607 -0.24317572
000120 bb 9e 92 3e e3 49 18 3f 50 80 28 3f 76 b9 0f 3f
       0.28636727 0.5948774 0.6582079 0.56142366
000130 59 18 d9 3d 1a e5 dd be d1 d0 74 bc 56 33 eb be
       0.10600347 -0.43338853 -0.014942364 -0.45937604
000140 f5 e6 1f bf 04 a8 01 3f 51 c3 10 3f e2 33 a1 be
       -0.6246179 0.50646996 0.5654803 -0.31484896
000150 5a 78 f0 3d e1 47 77 be 00 40 dc bc 16 95 9f be
       0.11741705 -0.24148513 -0.026885986 -0.3116843
000160 64 98 3f 3e 04 0a 14 bf ee 9a 33 3e b6 81 bf 3e
       0.18710476 -0.5782778 0.1753957 0.3740365
000170 ff eb 04 3f 4e 14 46 3e 3c cd 35 bf 7f 6c 99 be
       0.519226 0.19343683 -0.7101629 -0.29965588
000180 ab 66 a5 3e fe 5f 64 3e 6b 2a 0d bf 1e ce c2 be
       0.32304892 0.22302243 -0.5514285 -0.3804788
000190 3b 05 2c 3f e5 5c 7b 3e 43 ad 45 be 3a 04 64 be
       0.6719548 0.24547155 -0.19304375 -0.22267237
0001a0 33 65 5c be a3 33 25 3d bb 2c 09 bf ec 74 93 be
       -0.2152298 0.040332448 -0.5358388 -0.28800142
0001b0 49 bf 16 bd ea f2 10 3e 90 e0 0a 3e da 3d b4 3e
       -0.036803517 0.14155164 0.13562226 0.3520344
0001c0 96 a1 e8 be 27 42 23 3f 92 b1 c6 3e 60 9c 03 bf
       -0.4543578 0.63772815 0.3880735 -0.51410484
0001d0 9a 32 36 bd 52 1b bb bc 06 14 78 3e dc 87 35 be
       -0.04448185 -0.022840176 0.24226388 -0.17727607
0001e0 d2 12 29 3e b7 e8 e4 3d be 03 39 bf 68 6d 65 3e
       0.16511086 0.11177199 -0.72271335 0.22405016
0001f0 e5 bc 1d bf dd 0c 35 bf e5 ab 53 be d9 cc 5e be
       -0.61616355 -0.7072275 -0.20671041 -0.2175783
000200 b7 32 cf be 84 6f f7 be 35 a9 71 be 7e 89 00 3f
       -0.4046838 -0.48327267 -0.23599704 0.50209796
000210 db 4b de be 0d c3 5f 3d ee e5 93 3e 8e 8d 8c bc
       -0.43417248 0.054629374 0.2888636 -0.017157342
000220 37 47 17 3e 8f 17 58 3d c3 4f 12 3e 5f ab cb 3e
       0.1477326 0.052756842 0.14288239 0.39779183
000230 91 ce 6b 3f 6d 5d aa 3e 36 11 3e 3f 13 f8 b3 be
       0.9211207 0.33274403 0.7424501 -0.35150203
000240 77 f1 09 bf f6 79 89 be a6 cb ca 3e 04 5f 9e bc
       -0.5388407 -0.2685086 0.39608496 -0.019332416
000250 f9 fe c4 be d5 93 78 be 1a 32 11 bf a0 09 f9 be
       -0.3847578 -0.24275143 -0.56717074 -0.48640156
000260 cf e3 42 3e 16 d5 ab 3e 74 89 7e 3e a0 34 3c bf
       0.19032215 0.3356101 0.24857122 -0.735178
000270 65 55 c0 3e 5a e6 bf be ab bd f4 be 4c 4d 65 be
       0.3756515 -0.37480432 -0.47800955 -0.22392768
000280 84 3f 6f be 25 ab 6c 3c 84 7f 10 bf 53 00 e5 be
       -0.23364073 0.014445101 -0.56444573 -0.4472681
000290 a3 7c a6 be 6d a8 01 3d 61 c8 dc be 4d ee c5 3e
       -0.32516965 0.031654764 -0.43121627 0.38658372
0002a0 df 93 05 bf 1e 20 0d 3d c2 b2 2b 3f 80 57 56 be
       -0.5217876 0.034454457 0.6706964 -0.20931816
0002b0 a3 ce 26 3f 1f ff 82 3e f2 24 0d bf 2d 9e e2 3e
       0.6515905 0.25585267 -0.551345 0.44261304
0002c0 25 78 a3 3e 40 74 8f be b1 72 07 3f e5 c6 2a bf
       0.319276 -0.2801838 0.5290938 -0.6670974
0002d0 73 a5 db 3b 31 5f 3d bb 7f 2e 18 3e 6f 24 4d 3e
       0.0067030727 -0.002889585 0.14861487 0.2003343
0002e0 c9 f8 68 3e 50 b2 d5 3e b4 da d9 bd dd 87 06 bd
       0.22751154 0.41737604 -0.106374174 -0.032844413
0002f0 dc da b4 be a1 55 b2 3e e1 e6 0b 3f 20 e6 f9 3e
       -0.35323226 0.34830955 0.5464917 0.48808384

bias f4 [64]
000000 c7 4a b8 be 3c cf 18 3d 33 86 c2 be b4 d8 98 be
       -0.3599455 0.03730701 -0.3799301 -0.2985283
000010 ed 61 b0 be 36 bb 3a 3e 87 54 a7 be 52 ed 9a bc
       -0.3444971 0.18235478 -0.32681677 -0.018911991
000020 89 0d b9 3c 30 63 bb 3e 61 46 cd be 67 d4 cb be
       0.022589462 0.36599112 -0.40092757 -0.39810488
000030 74 0e a1 be 58 70 c8 3e 90 da 3c be 45 af f5 3e
       -0.3145634 0.3914821 -0.1844275 0.47985283
000040 fc 16 5d 3e 29 48 84 3d 5d ee 2c bd 4a 12 eb bd
       0.21590799 0.06459076 -0.04221951 -0.11478098
000050 f6 82 9b 3d 66 c7 f6 bd c1 b1 d7 bb 78 6c 4e 3d
       0.07593338 -0.12049751 -0.006582469 0.050396413
000060 18 49 e2 be 36 45 95 be d8 e4 df 3e 15 b9 fa be
       -0.4419639 -0.29154366 0.4372928 -0.4896933
000070 b1 66 4a bd 35 b5 12 3f f6 9d 2b 3e a2 7d 2a bc
       -0.04941434 0.5730775 0.16759476 -0.01040593
000080 fe 86 ed be e8 7e 92 3e 2d 9b b9 be ed f9 22 be
       -0.46392053 0.28612447 -0.36251202 -0.15915652
000090 f1 47 4c be 57 64 d7 bd 3f e7 b2 bc 23 d6 eb 3e
       -0.19949318 -0.10517185 -0.021838782 0.4606181
0000a0 bc 80 4e 3d 86 41 02 3f 14 8d aa 3e 12 a0 bf be
       0.05041574 0.5088123 0.3331076 -0.3742681
0000b0 2c b8 81 3e b2 f7 b4 be 40 b5 7c be 52 1d 22 3e
       0.25335824 -0.35345227 -0.24678516 0.15831497
0000c0 f6 d4 4b 3e f0 51 c7 3e 49 10 35 be 5b 66 39 bc
       0.19905457 0.389297 -0.17681994 -0.011315907
0000d0 17 79 99 3e 75 c6 09 bf 6c 2a da 3e 8d 3d e6 be
       0.29975197 -0.53818446 0.4261049 -0.44968835
0000e0 9d 12 ed 3c 0d 4a 8e bd 67 27 9e be b8 79 be 3d
       0.02893954 -0.06947718 -0.30889437 0.0930056
0000f0 4d ca eb 3e 79 f2 2a be d6 09 ae be bf fe 59 be
       0.4605278 -0.16694058 -0.3399188 -0.21288584

weight f4 [64, 64]
000000 0f c5 03 be f8 82 20 3b bb 68 8b bd 68 f9 a8 bd
       -0.1286814 0.0024492126 -0.06807085 -0.082506955
000010 cc 7a c0 bd 05 6c a7 3d e6 7b 3a 3d 30 1e 0d 3e
       -0.09398422 0.081749 0.045528315 0.13781047
000020 8f 33 f7 bc e1 5b d9 bd 71 17 49 bd 09 b3 a3 3c
       -0.030175952 -0.10613228 -0.04909462 0.019982832
000030 29 f4 a9 3d b4 20 4e 3d 7f 72 77 bd b3 6c 74 bd
       0.08298523 0.050324157 -0.060411926 -0.059673976
000040 49 5f 24 be 04 e0 81 3d dd 76 00 bd c1 cc 12 be
       -0.16051973 0.06341556 -0.031363357 -0.1433592
000050 90 a3 13 3e 7f 7a f5 bc c0 a8 d7 bb 74 8d 94 3d
       0.14417863 -0.029965637 -0.006581396 0.072535425
000060 38 8c d0 3b 98 f5 ee 3c 02 11 b9 bd 10 15 05 3e
       0.0063643716 0.029169843 -0.09036447 0.12996316
000070 8f 4f 99 3d bb 32 da 3d 24 e6 be bc 69 6b 7f 3d
       0.07485878 0.10654207 -0.023303099 0.062358294
000080 a5 63 ad bc bd 98 05 bd 49 77 b8 bd fb 16 ed 3c
       -0.021165678 -0.032616366 -0.09007127 0.028941622
000090 ba b3 f3 3c 47 1e 29 3d 07 77 11 3c e3 52 8a bd
       0.029748786 0.04128864 0.008878476 -0.06754091
0000a0 28 7a f8 3d 44 61 9c bd 0f 95 4b 3d 2a 71 7e bd
       0.121326745 -0.076357394 0.0497027 -0.06211964
0000b0 df 19 0e be 1f 53 59 3c b8 5d 83 bd ca fd 79 3d
       -0.13877057 0.0132644465 -0.0641436 0.061033048
0000c0 a6 d3 b4 bd 0e 20 ae bd 10 51 08 bc b8 30 d4 3d
       -0.08829431 -0.08502208 -0.008320108 0.10360855
0000d0 c1 3b 90 3d 5b 21 e9 bc 3e 4b 13 be a3 ee f1 bc
       0.07042647 -0.028458288 -0.14384171 -0.029532736
0000e0 a4 1d bd bb 13 ad 8d bd 44 67 ba 3c 6f 2e 5b 3d
       -0.0057713557 -0.06917777 0.022754319 0.05351108
0000f0 c2 ce 66 bd da bf bf 3c 72 94 1c 3d ea 87 79 3d
       -0.056349523 0.023406912 0.038227506 0.060920633
000100 87 d4 82 3c 00 18 a3 3c 01 1e c0 bd 9f e6 66 3d
       0.015970482 0.019908905 -0.09380723 0.05637228
000110 da f6 d8 3d db 29 97 3d 8a 95 bc 3d 95 7c 4d 3d
       0.10593958 0.0738103 0.0920821 0.05016764
000120 5a 8f 49 3c 8f 50 04 be 17 27 d0 bd 64 9f ac bd
       0.012302244 -0.12921356 -0.10163706 -0.08428839
000130 8d ac 00 3e 70 1b 83 3d 6b 69 ce bb ee d4 2b bc
       0.12565823 0.06401718 -0.006299188 -0.010487778
000140 89 c2 d6 3c df d9 f3 3d 30 bc 26 3e c9 a8 ea 3d
       0.026215808 0.1190679 0.16282725 0.114579745
000150 92 e4 53 bd 4e ad 4d bd 86 58 92 3d 44 4c b8 3d
       -0.051731654 -0.050214104 0.07145791 0.089989215
000160 4c cc 6b bd 64 f9 63 3e f7 a6 45 3d 2a b0 c7 3d
       -0.05756788 0.22263104 0.048254933 0.097503975
000170 70 da 60 3d dc ff e6 bb c0 da 89 bd d3 04 21 3e
       0.05489582 -0.007049544 -0.067311764 0.15724497
000180 4d 2e b6 3b 2b 9e 93 bd 87 65 1c 3d c3 29 e7 3d
       0.0055597187 -0.072079025 0.03818276 0.11287262
000190 84 09 11 bd 74 04 39 3e a5 54 29 bd c0 1a 55 3b
       -0.035409465 0.18068105 -0.04134049 0.0032517165
0001a0 cb 69 be bd 45 eb 06 be 28 c1 f8 bd 85 9e e9 3d
       -0.09297522 -0.13175686 -0.12146217 0.11407188
0001b0 f1 77 2e bd 23 c9 09 3e 14 87 e4 3d 45 6b 17 be
       -0.042594854 0.13455634 0.111585766 -0.14787014
0001c0 b8 2e fb bd c7 a7 09 bd 1d 11 77 bd de 96 88 3d
       -0.1226477 -0.03360727 -0.060319055 0.06669401
0001d0 c9 60 c0 bd ad 0b 2b bd af 9a 28 be 7a b3 15 bd
       -0.0939346 -0.04175918 -0.16465257 -0.036548115
0001e0 89 92 bc 3d dd 20 8f 3d af df ba 3d 36 3e 11 bd
       0.09207637 0.0698869 0.091246955 -0.03545972
0001f0 49 62 c3 3d fb c2 bc bb 54 9e 92 3d 24 e4 05 3e
       0.09540231 -0.005760548 0.07159105 0.1307531
000200 c3 1d 8b 3c 81 f2 00 3e 34 3f 05 3d f0 89 78 3d
       0.016981965 0.12592508 0.03253098 0.060678422
000210 8a 24 7b bd 80 d3 7f 3d 87 f5 01 bb de c7 b1 bc
       -0.061314143 0.06245756 -0.0019830184 -0.02170175
000220 a4 53 1b be 2f 45 bb 3b 9b e1 f7 bd 19 fc 93 3d
       -0.15168625 0.0057150344 -0.12103578 0.07225818
000230 fd 51 7d 3d 12 bd 8d 3b 7c 28 63 bd 12 d2 e0 3d
       0.06184577 0.0043255175 -0.05545853 0.10977568
000240 db cf e1 3d c7 dd a6 3c 5c 1d 14 bd 25 1f df 3d
       0.110259734 0.020369424 -0.03616081 0.10894612
000250 28 32 70 3d 75 1f 27 be e6 65 63 3c a4 cf fa 3d
       0.058641583 -0.16320594 0.013879275 0.122466356
000260 4b e0 ba bd 48 85 94 3c c3 61 28 bd 46 11 8d bd
       -0.09124812 0.01812996 -0.041108858 -0.0688806
000270 a5 02 14 3e 85 fc db 3c f7 5b af bd b5 e0 80 3c
       0.14454134 0.02685381 -0.08562463 0.015732149
000280 a3 bc 74 bd 3f 7b 11 bd 01 e1 6e ba 10 35 03 3e
       -0.05975021 -0.035517927 -0.00091125077 0.1281321
000290 1c 76 5b bc 1b b5 86 bd eb 30 20 3d 94 15 9d 3d
       -0.013394859 -0.06577512 0.03910915 0.07670131
0002a0 7a 8d a2 3d f2 89 b1 bd f3 5e 50 3c 5c 9c e4 bd
       0.07937141 -0.08668889 0.01271795 -0.11162636
0002b0 f4 35 81 bc d2 2c dc 3c b2 a5 0d be 74 52 5a 3d
       -0.015772797 0.02687684 -0.13832739 0.05330129
0002c0 f1 5e 0a 3e b8 5f 14 3d 7d 95 c5 bd c3 6c 2d bd
       0.1351278 0.036224097 -0.09647653 -0.04234005
0002d0 b8 00 59 3d 71 e5 e5 bd 8e 82 03 3e 45 04 05 be
       0.0529792 -0.11225403 0.12842771 -0.1298991
0002e0 40 2c 0a be f7 98 26 be 42 cb 46 bd 8e ab 79 3d
       -0.13493443 -0.16269289 -0.048533686 0.060954623
0002f0 1f 5d cc bd 66 dd 31 3d 52 01 80 bd 9f 45 60 bd
       -0.09978699 0.043424033 -0.06250252 -0.054753896
000300 6f 5b a1 bc 19 ec b8 bd d5 f5 91 3d a9 72 4b 3d
       -0.01969692 -0.09029407 0.07126967 0.049669895
000310 17 cd e9 3d 97 2e 76 3d e5 46 bc bd 5b eb c8 3d
       0.11416071 0.060103025 -0.091932096 0.098105155
000320 5b b5 3f bd 25 a9 24 3e 91 90 f9 bd a0 ce 2b bd
       -0.046803813 0.16080149 -0.12185777 -0.0419451
000330 61 7e 13 be 4f 1e 10 bd 38 8f 4c 3d df 8b b0 bd
       -0.14403678 -0.035185155 0.04994127 -0.08620428
000340 cf 3b b3 3d e4 f9 84 3d 02 ce f3 3c ac 61 9e bd
       0.08751642 0.06492975 0.029761318 -0.07733473
000350 b4 76 d3 bd 96 d8 06 be 4a 94 4f bd ef 83 0e 3e
       -0.10325375 -0.13168558 -0.05067853 0.13917516
000360 62 95 b2 3c 07 c6 d9 bd ec 77 93 3d 11 d4 3f be
       0.021799747 -0.10633474 0.07200608 -0.1873324
000370 17 d2 b0 bd 28 3c a3 3d 16 40 9b bd e7 c3 e9 3d
       -0.086338215 0.07970458 -0.07580583 0.114143185
000380 3a 82 f4 bd 09 38 91 bd 8c ea e3 bd 18 73 b1 3d
       -0.11938901 -0.07090766 -0.11128721 0.086645305
000390 f7 c6 ff bc 8a 66 c6 3d 1c 47 cb 3d b7 a4 a9 3d
       -0.031222804 0.096875265 0.099256724 0.0828337
0003a0 1b fe 07 3c 90 1e 80 bc 5f b1 31 3c 9d 38 94 3b
       0.00830033 -0.015639573 0.010845511 0.0045233504
0003b0 e6 c3 01 3e 09 09 d5 bd a3 8b 53 3d 90 b6 aa bc
       0.12672386 -0.10402114 0.05164684 -0.020839006
0003c0 b6 07 08 bd 20 fe 24 bd fc 53 dd 3d dd cc c7 3d
       -0.03321048 -0.040281415 0.108070344 0.097558714
0003d0 e2 73 c5 bd 90 e0 99 3d 4f 05 17 3e 32 58 7c 3d
       -0.096412435 0.07513535 0.14748119 0.061607547
0003e0 e0 10 de 3d 28 be d5 bd 1e 58 c4 3c 05 14 00 3d
       0.108430624 -0.1043666 0.023967799 0.031269092
0003f0 d8 5b a8 bc f5 7d f9 bc b8 77 37 bd bb bc 12 bd
       -0.020551607 -0.030455569 -0.044791907 -0.03582452

bias f4 [64]
000000 e2 79 60 bd d8 41 6a 3a 38 21 09 3e 71 e4 19 3d
       -0.054803737 0.0008936203 0.13391578 0.037571374
000010 7d 7b 7c bd 07 d7 d6 3b 2d 32 08 be 05 73 8f bd
       -0.061641205 0.006556395 -0.1330039 -0.0700436
000020 ef f3 a3 bc 33 53 79 bd f6 06 e9 3d bb f7 06 3d
       -0.020013778 -0.06087036 0.11378281 0.032951098
000030 5e 46 f4 3d 30 bd 8a bc a9 aa 0c bd ac 67 2c 3d
       0.11927484 -0.016935915 -0.03434244 0.042091057
000040 9a 46 0a bd f0 84 46 bd d0 6b 12 be ce 3b dc 3d
       -0.033758737 -0.048466623 -0.1429894 0.10753594
000050 7b 09 0c 3e cb 94 ed bd c0 5a 56 bd 76 60 eb bd
       0.13675492 -0.11600646 -0.05233264 -0.11493008
000060 de bf 3e bd da 38 df 3d bc ce 88 3d 6a 49 1f 3b
       -0.046569698 0.108995155 0.066800565 0.0024305233
000070 77 ab fc 3c 7a 06 5c 3d 2e 7e 87 3d d8 35 d1 bd
       0.03084348 0.053717114 0.06615864 -0.10215348
000080 86 8a 61 3d 37 74 ca bd 15 53 ce bd 50 f6 3e bd
       0.055063747 -0.098854475 -0.100744404 -0.04662162
000090 90 0f 19 bd 4f 21 c3 bd 93 20 ac 3c 59 d8 e6 3c
       -0.037368357 -0.095278375 0.021011626 0.028179334
0000a0 9e 81 2e bd 61 0a 33 3d 75 b8 00 3e 8f b5 3b bd
       -0.04260408 0.04371107 0.12570365 -0.045827445
0000b0 3a 6a 4e bd d6 2e 00 be 8b 4d f2 bd 66 05 76 bd
       -0.050394274 -0.12517866 -0.118311964 -0.060063742
0000c0 32 c8 a8 bd fc 4c 84 bd 81 f9 42 3d 97 d7 0f 3d
       -0.08241309 -0.06459996 0.047601227 0.035117712
0000d0 d2 a9 e0 3d 6a 1a fa 3d d0 7b f1 bc 77 64 af bc
       0.10969891 0.12212069 -0.029477984 -0.02141021
0000e0 6c 5b e9 bb 69 3b a0 bd e0 47 99 3d 1d 91 48 bc
       -0.007121494 -0.078238316 0.07484412 -0.012241629
0000f0 f3 d7 02 be 75 19 f0 bd c7 1e 8a bd 34 99 6b 3c
       -0.1277769 -0.117236055 -0.067441516 0.014379788

weight f4 [3, 64]
000000 d0 61 19 3e fb 84 e2 3d 3e 2f 25 bd 27 9f 43 bd
       0.14978719 0.1106052 -0.040328257 -0.0477592
000010 99 e0 66 bd ff ee 91 bd 23 3e ff bc 68 c9 f3 bd
       -0.056366537 -0.07125663 -0.031157559 -0.119036496
000020 6a 72 c4 3d 65 52 30 be 1e 20 93 bd 10 40 3d 3c
       0.09592135 -0.17218931 -0.0718386 0.011550918
000030 1a 02 d6 bd ad 7e 10 3d 92 1f 87 3d 40 50 17 3e
       -0.104496196 0.035277057 0.065978184 0.14776707
000040 cb 05 35 3e 69 b6 b8 bd aa 9d 9e 3d 25 cf f9 bb
       0.17677991 -0.09019167 0.07744916 -0.0076235705
000050 a8 50 b9 bd 3d 3e 3e 3d 7b 07 e4 3c 29 0d f5 3d
       -0.09048587 0.046446074 0.027835598 0.11965401
000060 3d 2e 4f 3d 73 58 86 3d b4 00 2f 3d e2 b4 a6 bc
       0.050581206 0.06559839 0.04272528 -0.020349924
000070 1b cd a9 3c 15 11 8f 3c 87 18 6e be 3c 17 aa 3c
       0.020727685 0.0174642 -0.23251544 0.020763032
000080 e3 94 84 bd 86 65 09 bd f0 62 fd 3c 51 7b a0 3d
       -0.064737104 -0.033544086 0.030930966 0.07836021
000090 cd c2 cc 3d ca 97 e1 3a 19 1b 78 3d 7d 1a 30 3e
       0.09998093 0.0017211374 0.060572717 0.17197604
0000a0 0b 5e 97 3d 3f 84 84 3d 21 58 a4 bd 1c 38 db 3d
       0.07390984 0.064705364 -0.08024622 0.107040614
0000b0 39 3c 8d 3d 87 2c 1e 3d 40 ae 0b 3d a8 cd 95 bd
       0.06896252 0.038616683 0.034101725 -0.073146164
0000c0 1f 65 18 3d 87 cf 35 3e 57 2d cc 3d ae d6 95 bd
       0.03720581 0.17754947 0.099695854 -0.073163375
0000d0 29 cd bd 3d 22 77 dc 3d e3 28 a7 3c ab 1c b5 bd
       0.09267647 0.1076491 0.020405238 -0.088433586
0000e0 41 f4 92 3d 2d 57 40 3b d9 79 af 3d 5f 64 01 be
       0.07175494 0.0029348836 0.085681625 -0.12635945
0000f0 f4 e7 3b 3d a8 75 12 bc 98 9c ee 3c 37 08 a7 3d
       0.045875505 -0.008939184 0.029127404 0.08155864
000100 31 85 4d 3d 95 b7 7d bd 57 06 9a bd 1c 14 c3 bd
       0.05017585 -0.061942656 -0.075207405 -0.0952532
000110 64 4a bb 3c e3 63 76 3d 1a 42 7c bc 04 d0 16 bd
       0.02286262 0.060153853 -0.015396619 -0.036819473
000120 6a df 5f 3d be 73 f2 bd ca 38 08 3e b4 ec e4 3c
       0.054656424 -0.11838482 0.13302913 0.0279449
000130 2d 9b bb 3d 7a a8 d6 3d 14 e2 a8 bd ca 84 4d 3c
       0.09160457 0.10481353 -0.08246246 0.012543866
000140 ab 15 e9 bd 09 9f e4 3d bc b1 9a 3d 5e 55 5a bd
       -0.11381086 0.11163146 0.075534314 -0.05330407
000150 dd e0 8d 3d 41 b5 44 ba 8f 97 b4 3d 42 77 91 3d
       0.06927655 -0.00075038156 0.0881797 0.07102825
000160 ad 59 06 3e e0 5f fa bd 6b 70 30 3e 2c a1 03 3e
       0.13120146 -0.12225318 0.17230384 0.12854451
000170 a0 a9 7b 3d be 69 d2 3c d7 4c d7 3d 9a 96 10 3e
       0.061441064 0.025685187 0.10512703 0.1411995
000180 69 99 bd bc c3 02 f0 bd 1d b6 f9 3d fa cd 4f bd
       -0.02314444 -0.11719277 0.121929385 -0.050733544
000190 1e 4c af bc 33 b0 6a 3d bf ef c5 3d bb 1c 4d 3d
       -0.0213986 0.057296943 0.096648686 0.050076228
0001a0 e8 be 5f bd c3 e1 b3 bc 53 d3 56 3e f8 6f e6 3d
       -0.05462542 -0.021958238 0.20979051 0.11251825
0001b0 08 a5 51 3d 49 10 f8 3d f9 de 04 be ea 46 88 3d
       0.051182777 0.12112481 -0.12975682 0.06654151
0001c0 6c a9 06 be 97 67 a2 3d e6 35 1a be 96 a4 d1 bd
       -0.13150567 0.079299144 -0.15059623 -0.102364704
0001d0 14 07 15 be 37 ae fd 3d b0 74 8a bb 85 97 aa ba
       -0.14553481 0.123867445 -0.004225336 -0.0013015127
0001e0 b1 71 99 3c c9 d6 10 3b b0 89 e4 bc 7e cc a3 bd
       0.01873097 0.0022100678 -0.027897686 -0.07997988
0001f0 c7 59 08 bd 70 c3 cd bd d4 ba 6b bc 43 94 f9 3c
       -0.033288743 -0.10047042 -0.014387805 0.030466205
000200 79 ce c4 bd 10 5e bb 3d 61 c9 e9 bd 81 19 8c bd
       -0.09609694 0.091488004 -0.11415363 -0.06840802
000210 06 77 5b 3d 6e ad 30 3d 46 a3 00 3e b5 b2 ef bc
       0.053580306 0.043134145 0.12562284 -0.029260019
000220 76 ea 98 bd d2 7f 79 bd 51 67 af bc c7 b4 49 bd
       -0.07466595 -0.060912915 -0.02141157 -0.04924467
000230 32 c8 f6 bd 1b fe a9 bc 9e 38 61 3d b5 38 65 bd
       -0.12049903 -0.02075105 0.054985635 -0.055962283
000240 8b 14 08 bd 62 33 0b 3d 2d 03 11 3e 64 4c 69 bd
       -0.033222716 0.03398455 0.14161368 -0.056957617
000250 06 e8 d5 bd 33 d1 ca bc 8f f3 4e 3d 57 09 81 3d
       -0.104446456 -0.024757957 0.050525244 0.063006096
000260 3c 69 e6 bc 16 a0 8c bd ba 13 97 bd 89 35 97 bd
       -0.028126352 -0.068664715 -0.073768094 -0.07383258
000270 5c d7 53 3d 22 f1 aa bd c6 79 4d 3d 4d a9 ef 3c
       0.051719055 -0.08346774 0.05016496 0.029255534
000280 11 be 36 bd a0 56 9c bd 7f 43 be 3d 60 3b 4b 3c
       -0.044614855 -0.0763371 0.092902176 0.012404293
000290 1d 69 8a 3d a8 62 c9 bd 9c 06 e1 bd f6 46 9a bd
       0.0675833 -0.0983327 -0.10987589 -0.07533066
0002a0 5e 7d 32 bd 0e 03 43 bd e0 6b 14 bd ea 95 04 3e
       -0.04357659 -0.047610335 -0.03623569 0.12947813
0002b0 15 59 c0 bd 4e 1b ab 3d c1 16 de 3d bf 6a 1b bd
       -0.09391991 0.08354817 0.10844184 -0.037943598
0002c0 a0 96 c6 bd 1c 65 e5 3c ed 26 a2 3b 9c 3b a1 3d
       -0.09696698 0.028002314 0.004948488 0.07872698
0002d0 1e 0b 6d bd 59 82 96 bd 8d e7 a5 bd 9a 4a 1c be
       -0.05787193 -0.073490806 -0.081008054 -0.15262833
0002e0 96 5f 21 3d 9e fd db bd 74 66 a8 bd a0 fb 0a bd
       0.0393978 -0.10741733 -0.082226664 -0.033931375
0002f0 1b 01 ea 3d 53 68 d5 3d e4 79 f0 bd 0d 87 c8 3d
       0.11425992 0.10420289 -0.11741999 0.09791384

bias f4 [3]
000000 84 fa cf 3d 6b 3f ce 3d c5 03 6b bc
       0.10155204 0.1007069 -0.01434416

weight f4 [64, 3]
000000 b8 c0 ed 3e 0a 3f e8 3d f3 78 02 c0 bb db 13 be
       0.46436095 0.11340149 -2.0386322 -0.1443929
000010 0d 16 7d 3d 8d df f7 bf 83 34 15 be 98 1f 27 3f
       0.061788607 -1.9365097 -0.14570813 0.65282583
000020 16 08 b2 3f bc 65 fc 3e a6 92 45 3c 2e d3 11 c0
       1.3908718 0.49296367 0.0120588895 -2.2785144
000030 83 7d f6 3e 25 a9 bf bd aa 53 f5 3e 43 6e 15 bf
       0.48142633 -0.09358434 0.47915393 -0.5837137
000040 55 a4 27 3e b0 c6 b0 bf e9 7b 0b 3f e5 ed e6 3e
       0.16371281 -1.3810635 0.54485947 0.45103374
000050 5a c5 96 3f 37 7e 17 3f 76 75 87 3e a6 b9 55 be
       1.1778977 0.59176964 0.26456803 -0.208716
000060 d7 6a 95 be 83 ac 49 3e e7 8a bf 3f 93 f8 bf bd
       -0.29183075 0.19694714 1.4964265 -0.09373584
000070 0b 70 ac bd 29 56 35 40 b4 25 df 3e c8 a1 39 3d
       -0.08419808 2.8333838 0.43583453 0.045320302
000080 68 33 64 3f b8 a1 a1 3d f6 90 32 be 80 e4 af 3f
       0.8914094 0.078921735 -0.1743811 1.3741608
000090 7a a4 33 be 9e 29 85 3e 43 4c 00 40 b8 84 38 3e
       -0.17543212 0.26008314 2.0046546 0.18019378
0000a0 94 e9 10 bd 10 be 0c c0 47 6c 0c bf 40 d4 f7 3d
       -0.035379007 -2.1991005 -0.5485272 0.1210103
0000b0 e4 62 76 bd a1 f3 0c bf cf 59 b2 3a b8 ac 1b bf
       -0.060152903 -0.5505925 0.0013607087 -0.6081042
0000c0 ff 70 f4 3d cf 96 4f be 80 75 88 bf d4 0c cc be
       0.11935615 -0.20272373 -1.0660858 -0.39853537
0000d0 c6 a0 0d 3e 50 18 f6 bd 8d a2 6e bb c7 55 a7 3e
       0.13830861 -0.12016356 -0.0036412806 0.3268263
0000e0 2c d8 14 3f 76 67 02 be bc 86 a6 3c ee 47 19 c0
       0.5814235 -0.1273478 0.020327918 -2.3950152
0000f0 f5 e5 fb bb 31 79 68 3d 3d 42 25 c0 b0 90 9e be
       -0.007687325 0.056756202 -2.5821679 -0.30969763
000100 25 37 24 3f 1f 1d dd 3f 48 9b a7 bd aa 73 21 3d
       0.64146644 1.7274512 -0.081839144 0.039416946
000110 99 db ce bf db 97 63 3d 1d ac 0f bf 7a 20 c2 bf
       -1.6160766 0.055564743 -0.56122 -1.5166161
000120 12 43 08 bf cd 0e d4 be eb af c0 3f 6e 4d 7b 3e
       -0.5322734 -0.41417542 1.5053686 0.24541256
000130 ef 32 ae 3e ef ee a0 bf 69 8c 9b 3c 02 ab a0 be
       0.34023234 -1.2572917 0.018987851 -0.3138047
000140 ad f5 c6 3f 12 88 25 be 99 8f 88 bd 6d e3 d4 3f
       1.5543724 -0.16165188 -0.06668014 1.6631905
000150 86 08 03 bf b9 40 91 3d f3 3d cf be cd dc bb be
       -0.5118488 0.07092423 -0.4047695 -0.36691895
000160 1d ca 15 3e 09 28 f7 be 6e 03 01 bf bf 33 87 3f
       0.14627881 -0.48272732 -0.5039586 1.0562667
000170 db 20 85 3f f5 eb 8f be 40 9f fe 3e f9 f8 6d 3f
       1.0400652 -0.28109708 0.49730873 0.9295803
000180 d4 18 15 bf 09 01 25 be 8a 39 78 3f 04 66 97 be
       -0.5824101 -0.16113676 0.969628 -0.2957002
000190 9a 25 7f 3e 9f 82 17 be 9d 84 07 be 8a 0a dd 3c
       0.24916688 -0.14795922 -0.13234182 0.026982564
0001a0 32 e4 a9 3f 33 80 b4 be 87 73 c2 3e d1 27 fa 3e
       1.3272765 -0.35254058 0.37978765 0.48858503
0001b0 35 a8 a0 3b cd e6 30 bd 25 d9 93 3e a2 ad c3 3e
       0.0049028643 -0.04318886 0.28876606 0.3821841
0001c0 2e 4b a2 be 8f a6 55 3f a6 62 64 3e a8 1f a0 3d
       -0.31697983 0.83457273 0.22303256 0.07818538
0001d0 ef 44 29 c0 53 99 1b 3e 2e f0 51 3e 8c 1c 3a bf
       -2.6448324 0.15195207 0.20501778 -0.7269981
0001e0 72 8b 28 be 70 74 74 bf 71 cd f4 bf 91 d9 bb 3d
       -0.16459444 -0.9549017 -1.9125196 0.09172357
0001f0 b4 f7 6e 3e e4 53 e6 bf 78 dd 0f 3d b8 f1 38 be
       0.23336679 -1.7994351 0.03512332 -0.18060958
000200 c3 b7 8d bf 7e 81 ea bd af b0 fb bc 53 5a 24 40
       -1.1071705 -0.1145048 -0.030723898 2.568013
000210 2e da 89 3e a2 73 63 be 24 b0 d2 bf 61 cf 25 be
       0.2692427 -0.22212079 -1.6460004 -0.1619239
000220 07 5c 19 3d 07 72 6f 3f c8 65 1a be 49 2e 25 bf
       0.03744128 0.93533367 -0.15077889 -0.6452375
000230 c1 05 d3 3f 3d c3 68 3e c0 a4 07 be 76 8d 03 c0
       1.6486131 0.22730727 -0.13246441 -2.055509
000240 7c da 0d be 5d fa 1e bf 7c 4d 41 bd fc 6f f5 3e
       -0.13852876 -0.62100774 -0.047193035 0.47937
000250 96 e3 47 3e 38 96 eb bf b7 05 f4 3e b5 43 4e 3f
       0.19520411 -1.8405218 0.4766061 0.8057206
000260 3d 3e 09 c0 0d cf 3c be 2d 3f bc be 99 f3 51 3f
       -2.1444237 -0.18438359 -0.3676695 0.82012326
000270 56 25 cf 3e da 66 7f be 5e cc b4 3e 58 88 00 3e
       0.40458173 -0.24941579 0.3531217 0.12552011
000280 9b 13 e2 be 70 7e 12 3f 04 78 4b 3e 88 12 65 be
       -0.44155583 0.5722418 0.19870001 -0.2237035
000290 b5 d3 01 3f 8a 03 ad 3e 24 32 d9 3d 01 36 f0 3f
       0.50713664 0.33791763 0.10605267 1.8766481
0002a0 c5 9e f6 3d e3 be 4d bd e5 dc 57 bf ed 5b b0 3e
       0.12042002 -0.050230872 -0.84321433 0.34445134
0002b0 56 e6 ab bd 3f 3d 29 c0 f8 ee 8e 3e af 5f 26 bd
       -0.083935425 -2.6443632 0.27916694 -0.040618595
0002c0 29 c4 00 40 3b 83 2a 3e e0 5a 11 be 53 65 7c bf
       2.0119727 0.16651623 -0.14194822 -0.9859211
0002d0 84 06 04 3e 61 c0 24 be fb 0a 00 c0 72 55 d9 3d
       0.1289311 -0.16089012 -2.0006702 0.106120005
0002e0 04 0e 67 3d 2b 46 08 c0 ee 34 3a 3e 7a 4b 0f 3f
       0.05640985 -2.1292827 0.18184254 0.55974543
0002f0 cb 83 07 be 79 be 1c 3f 91 67 4b 3e 2d 47 ae bd
       -0.13233869 0.6122814 0.19863726 -0.085096695

bias f4 [64]
000000 0c 53 aa be eb 86 aa be d1 17 45 be 26 70 3b bd
       -0.33266485 -0.3330606 -0.19247366 -0.04576125
000010 6a d1 be be 4d 64 e9 3e e2 b4 ea be c5 4a 07 bf
       -0.37269145 0.45584336 -0.45841128 -0.52848464
000020 ba 2d 19 3c 77 7d ad 3e ba ab 9f be 09 05 10 3f
       0.009349281 0.33884785 -0.31185704 0.56257683
000030 3c b9 8a 3e 33 88 11 be 2d e1 cc 3e 4f b0 bd 3e
       0.27094448 -0.14212112 0.40015545 0.37048575
000040 9c 03 86 be 0d 6f 47 3d f5 2c 0f 3f 18 54 75 3e
       -0.2617463 0.04868989 0.55927974 0.2395786
000050 7a 38 34 be e4 a5 c3 bd fe b5 92 3e 9c 81 9a 3e
       -0.17599669 -0.095531255 0.28654474 0.3017701
000060 e4 a4 f1 3d b9 8d 6c be 25 44 e1 be 1d 87 5c bd
       0.117990285 -0.23100938 -0.43997303 -0.05383979
000070 47 a4 a7 3e 0d eb 24 3d 59 f3 e7 be 3f a9 08 be
       0.3274252 0.040263224 -0.45302847 -0.13345812
000080 76 11 14 3f 0f 6c 81 be ec 61 d5 be d6 5a c8 3e
       0.57839143 -0.25277755 -0.4167627 0.39131802
000090 70 f0 0f 3f ba 12 12 bf c1 d8 eb be 6c c9 80 be
       0.56226254 -0.57059824 -0.46063808 -0.25153673
0000a0 41 2f 13 3f 79 6d 79 be b0 51 c8 3c 2d 42 aa 3e
       0.5749398 -0.24358167 0.024453014 0.33253613
0000b0 02 e3 60 be 65 d8 86 b9 e5 f6 9d be 2c aa 08 bd
       -0.21961597 -0.00025719698 -0.30852428 -0.033365414
0000c0 5d 58 f9 3e ff e6 51 3d a8 40 9e 3e 1d 55 ac 3d
       0.48700228 0.051245686 0.30908704 0.084146716
0000d0 63 7e 70 be 52 21 a8 bd 7e 14 a6 3e d3 18 0e be
       -0.23485713 -0.0820948 0.3243751 -0.13876657
0000e0 3b 50 d1 be 15 97 5b be 6e 19 1b 3e e0 7d 05 3f
       -0.40881523 -0.21444352 0.1514642 0.52145195
0000f0 87 43 e9 bd f6 4c 03 bf a6 6f d7 be 3f 5c 0a bf
       -0.11389833 -0.5128931 -0.42077368 -0.54047006

weight f4 [64, 64]
000000 22 62 ee 3d 61 6d b6 3d af b5 a5 bc 7e e2 d1 3d
       0.11639811 0.08907581 -0.020228235 0.10248278
000010 d6 c5 d9 3c 18 e4 0c 3e a3 50 c6 3c ab ae 35 3d
       0.026583593 0.13758886 0.024208372 0.04435603
000020 f4 b0 89 3a 69 d0 23 3d d0 96 19 be 65 27 8e bd
       0.0010505007 0.039993677 -0.14998937 -0.06941108
000030 3b 11 d2 3c d0 e7 20 3e b3 03 63 bd 78 3b 30 bd
       0.025642982 0.1571343 -0.05542345 -0.043025464
000040 38 5b 02 be 04 56 bd 3d 41 91 cb 3d e8 08 e7 bb
       -0.1273011 0.09244922 0.09939814 -0.0070506223
000050 92 96 5a 3d 1b 5e c5 bd 92 c6 17 3e ee f0 7e bd
       0.05336625 -0.0963709 0.14821842 -0.062241487
000060 e6 e6 09 be 1b b4 ed bd 54 b6 1d 3d 24 d1 dd bd
       -0.13466987 -0.11606618 0.03850396 -0.10830906
000070 58 8a 1b 3e 60 d5 09 3d 62 4b 0f be 31 26 9d bd
       0.15189493 0.033650756 -0.139936 -0.076733
000080 7b 17 f0 bc db 61 25 3d e4 b0 94 bd 0a ec a6 3d
       -0.029308071 0.040376525 -0.07260302 0.0815049
000090 63 92 fe 3c ff a5 18 be 9d 2d 8a bd 6d 04 d0 bd
       0.031075662 -0.14907072 -0.06746981 -0.10157094
0000a0 db 3d 03 3e b4 2b b2 3c ac b0 1b 3d c6 e4 b7 bd
       0.12816565 0.021749355 0.038010284 -0.08979182
0000b0 f3 d5 f1 bd 16 67 6f bd a5 4f 12 be 38 19 78 bd
       -0.11808386 -0.05844792 -0.14288194 -0.060570925
0000c0 79 51 b2 bd 98 f9 3b bd f8 97 90 bd 29 aa 6f 3c
       -0.08706946 -0.045892328 -0.07060236 0.014627972
0000d0 18 6e 6d 3c fc d7 92 3c 66 66 e6 bd 96 72 b1 bd
       0.01449158 0.017925255 -0.1125 -0.08664434
0000e0 0f 3b 29 3b d6 b8 5d 3e bd 49 52 bd 48 82 aa 3d
       0.0025822555 0.2165254 -0.051339854 0.083256304
0000f0 58 ec a5 bc f2 dd 3b 3d e4 a3 8f 3d a0 1e fe 3b
       -0.020254299 0.04586596 0.070136815 0.0077551156
000100 d9 7d f7 bd a6 5c a8 bc 7f e2 3a bd db 58 86 3d
       -0.120845504 -0.02055199 -0.04562616 0.065599166
000110 a9 d2 5e bd 41 3b c1 3c ef 5b a0 bd ea 1c be bc
       -0.05440012 0.023587825 -0.07830035 -0.023207147
000120 6b f3 0b bb e9 98 bc bd ae 19 c6 bd d2 e8 be 3d
       -0.0021354805 -0.09208853 -0.09672867 0.09321751
000130 78 23 99 3d 8b 73 98 3d 8b e9 bd 3d 7e a7 f3 3d
       0.07477468 0.07443913 0.092730604 0.11897181
000140 07 cd 5e bd 02 e7 1a bd 39 57 c7 bd ff f3 68 3d
       -0.054394748 -0.037817962 -0.09733433 0.056873318
000150 59 4d d5 3c 9c 13 24 bd ce ff cf 3d db 39 01 bd
       0.026037859 -0.040057763 0.10156213 -0.031549316
000160 06 45 7c bd 3e 24 a0 bd 6f 41 8d bd c7 8f e2 3d
       -0.061589263 -0.07819413 -0.06897246 0.110625796
000170 76 19 84 bd cb f0 6a bc 5e 39 2d 3d 25 cc cc bd
       -0.06450169 -0.014339636 0.042291038 -0.09999875
000180 5a 91 bc bd 98 81 cd 3d ce 87 3c bd 8d ca c2 bd
       -0.09207411 0.10034484 -0.04602795 -0.0951129
000190 f3 13 eb bc 1d 9f 7f bc 5f 50 30 3d 9b e4 61 3d
       -0.028696036 -0.0156019 0.043045398 0.055149656
0001a0 26 22 8c bd c4 77 06 3e 6d e2 e4 bd 44 eb a8 3c
       -0.06842451 0.13131624 -0.11176 0.020619996
0001b0 cb 1d ea 3c ed 8a 2f bd e7 66 d6 3d 58 63 bf bd
       0.02857866 -0.0428571 0.10468846 -0.0934512
0001c0 ed 78 02 3c b5 6f a1 3d 4d 61 fa 3d 0e 1a b1 bd
       0.007963401 0.078826346 0.1222559 -0.08647548
0001d0 19 cd 14 3d ab fc 1b 3e 91 47 07 be 2b 3b c5 bd
       0.03632841 0.15233104 -0.13210894 -0.09630426
0001e0 84 03 85 bd 80 c4 b5 3d 77 9a 0f be 30 42 64 3d
       -0.06494811 0.0887537 -0.14023767 0.055727184
0001f0 a0 f4 91 3d 63 26 b9 3d c6 0c ed bb c3 4c c1 bb
       0.07126737 0.09040525 -0.0072341887 -0.0058990433
000200 9d 61 1e bf d9 72 2c be ca d6 8e bd 0d e6 28 bd
       -0.61867696 -0.16840686 -0.069745615 -0.04123502
000210 c0 ed 23 bf 4b 8b 99 3e 44 6d d4 be 04 83 c0 be
       -0.6403465 0.29989085 -0.41489613 -0.37599957
000220 f0 2e c5 bc 2d 75 b1 bc b3 ce 8b be ea 87 e2 3c
       -0.024070233 -0.02166232 -0.27306136 0.0276527
000230 bf 14 6e 3d e9 7a c7 be 39 8e 31 3f 6d 44 06 3f
       0.058125254 -0.3896096 0.6935764 0.5244816
000240 02 29 6f bd 07 a2 60 3d 29 03 78 3d ca 04 64 3e
       -0.058388717 0.05484202 0.06054989 0.22267452
000250 37 6e d5 bd f4 b1 a1 bd 50 2b 1d 3e de e0 df 3d
       -0.104214124 -0.0789527 0.15348554 0.10931562
000260 9e 41 be 3d f2 21 9e 3d de 14 1f be 3f 73 71 bd
       0.09289859 0.07721318 -0.15535304 -0.058947798
000270 ef 39 23 3f ab 4d 17 3d 92 2b f7 bd ff 3e 5c 3d
       0.63760275 0.036939304 -0.12068857 0.053771015
000280 74 e5 19 3e c9 e6 72 3d ae 78 5d bd 63 25 62 3e
       0.15028936 0.059302125 -0.054070167 0.22084574
000290 95 ca 07 3c cd 61 82 be 9b 6f 6f bd 6a ef a4 bd
       0.008288045 -0.2546524 -0.058456045 -0.08053477
0002a0 c2 8a d6 3c 83 72 dc bc 7c 13 fe bd e2 04 1e 3d
       0.026189212 -0.026910072 -0.1240606 0.038578875
0002b0 6f b5 8e be 19 61 77 bd 9b 83 0e be 89 de db 3c
       -0.27872798 -0.060395334 -0.13917391 0.026839511
0002c0 c1 5f c1 3d 5e 68 e1 3d 54 6f 4e bd 00 1f 24 3e
       0.09442092 0.110062346 -0.05039914 0.1602745
0002d0 72 f1 e4 be a1 2a 0e be e4 57 26 bc 8f 7d 33 bf
       -0.44715458 -0.13883449 -0.010152791 -0.7011346
0002e0 c5 9c 7d bd 84 9e b8 be c0 bc e0 bd 9b c4 3b 3e
       -0.061917085 -0.36058438 -0.10973501 0.18336718
0002f0 bc 25 48 be 03 14 20 bd cf 40 97 3d af 67 55 be
       -0.19545645 -0.039081585 0.07385408 -0.20840333
000300 8d cf 51 3e a3 bc 13 3e 8e f8 8e 3d 61 af 54 3d
       0.2048933 0.14427428 0.06981002 0.051925067
000310 fa 30 77 bd 56 b3 59 3d e8 c2 f1 bd c1 80 1c 3d
       -0.060349442 0.053149544 -0.118047535 0.038208727
000320 7f 7b 9b 3b 9f c4 b3 bc 15 f2 13 be e0 7f 8f bd
       0.0047449465 -0.021944342 -0.14447816 -0.07006812
000330 c5 a5 9b 3c 2e c7 89 3e a9 d0 91 3d b0 12 50 bd
       0.018999944 0.26909775 0.07119877 -0.05079907
000340 22 ec 27 bd fd 8a d9 3c 5b 8c 07 bd b2 06 f5 3d
       -0.04099668 0.026555533 -0.033092838 0.11964168
000350 6f 4c e0 3c 66 c2 8e 3d 2a b5 39 bc d7 86 90 3d
       0.027380196 0.06970672 -0.011334697 0.07056969
000360 a2 00 ba bd 6c b1 d0 3c 17 1a 04 be 25 6f f0 bd
       -0.09082152 0.025475226 -0.12900577 -0.11739949
000370 d1 b5 30 bc be 64 79 3d 1d 4a 77 bc 35 27 8b 3b
       -0.010785536 0.06088709 -0.015093354 0.004246617
000380 7a 17 91 bc 75 4b fb 3d 32 01 08 3e e2 79 3f 3d
       -0.01771139 0.12270252 0.13281706 0.046747096
000390 78 ae ab 3d d5 b8 d3 bc f5 b5 c3 b7 c5 a9 02 3d
       0.08382887 -0.02584497 -2.3330542e-05 0.031900186
0003a0 60 ef f3 3d 41 b7 9e 3b c7 cf 98 bd 0d bc 0e bc
       0.119108915 0.004843623 -0.074615054 -0.008711827
0003b0 3f 8e 13 3d f5 f3 0e bd 0b f7 88 3d f6 bb 03 3d
       0.03602433 -0.034900624 0.06687745 0.032161675
0003c0 dc 77 97 bd 2b a9 9d bd bb f7 0b 3e 0e b4 ad 3d
       -0.07395908 -0.07698282 0.1366872 0.08481608
0003d0 4c b7 04 be 2c c9 d9 bb 18 31 e1 bc 48 3a 60 be
       -0.12960547 -0.006646296 -0.02748923 -0.21897233
0003e0 0f b5 ad bd 1e 64 58 3e de d9 83 bc 33 b6 4f 3d
       -0.084818 0.21131942 -0.016095098 0.050710868
0003f0 4d 20 4e 3e e5 16 c2 bc d4 da f7 bd c5 c2 39 3d
       0.2012951 -0.023692558 -0.12102285 0.045351762

bias f4 [64]
000000 7d fd 88 bd 65 d1 dc 3c 29 22 57 3e 57 e3 c6 3d
       -0.06688974 0.026955316 0.21009125 0.097113304
000010 58 02 b1 3c a6 52 28 3d fe d0 5d bc 96 7e 74 3d
       0.021607563 0.041094445 -0.013538597 0.059691034
000020 6e 30 a0 b9 cd 92 5f bd da c6 da bd 5d 4b ac bd
       -0.0003055366 -0.05458336 -0.10682459 -0.08412812
000030 98 25 f4 3d 7c c0 cf 3b 9b 8b 6d 3d c0 15 9c 3c
       0.11921233 0.0063400846 0.057994466 0.01905334
000040 ae a8 56 3d 38 0a b1 3d e7 bd d8 bd a6 27 b2 3d
       0.05240696 0.08644527 -0.10583096 0.086989686
000050 20 a1 0d bd ee 0d e2 bd 3f 6d bd bd 41 12 c4 3a
       -0.03457749 -0.11037813 -0.09249353 0.0014959053
000060 e7 5f bc 3d 1a 34 d4 bd cf f6 09 3d 99 c3 c3 3d
       0.091979794 -0.103615 0.03368264 0.09558792
000070 1d 5c e8 bd 5e 77 e1 3c 74 92 c1 bd d6 6f 96 3c
       -0.11345694 0.027522739 -0.09451762 0.018363874
000080 d7 3b 0e bd 30 1e c2 3d 80 e6 d5 bd c0 5c 85 3d
       -0.034725036 0.09478414 -0.10444355 0.06511831
000090 7f 4f 24 bd 18 26 e4 3c 1c 98 ef bb 66 67 d8 bd
       -0.040114876 0.027850196 -0.007311834 -0.10566597
0000a0 69 0a 0a bd ec ba ba 3d e5 ee a3 b8 d0 33 67 bd
       -0.033701334 0.09117684 -7.816943e-05 -0.056445897
0000b0 2c ad 6e 3d f2 03 c9 bd 54 fe 6c bd 09 da 4d 3d
       0.05827062 -0.09815206 -0.057859734 0.050256763
0000c0 07 8c 50 bb 76 52 d3 3c d3 f4 ae 3d 5f 3b 4c bd
       -0.0031821744 0.025796156 0.0854279 -0.04986131
0000d0 fc eb 05 3d a2 da b7 3d fc a0 23 3c cf 34 ec 3d
       0.032695755 0.08977248 0.009987112 0.1153351
0000e0 5f b7 1d 3d 1b 03 b0 3d dc ee cd 3d 6b 11 b0 3d
       0.038504954 0.08594342 0.100553244 0.08597072
0000f0 b1 ba f0 3c 54 63 95 3d 40 8f 8c 3d 39 be 33 3c
       0.029385896 0.07294336 0.0686326 0.010970646

weight f4 [1, 64]
000000 00 5e 6d 3c 3a b0 67 3b 31 4b 04 3e c4 f9 99 3c
       0.014487743 0.0035352842 0.12919308 0.018795855
000010 e0 1a ca ba f2 87 a9 ba a1 f4 4c 3a f0 c8 56 3d
       -0.0015419386 -0.0012934192 0.0007818435 0.052437723
000020 3a 12 1d ba 35 c6 e0 bd 46 32 55 be 90 df 11 be
       -0.00059917907 -0.10975305 -0.20819959 -0.14245439
000030 1e 12 36 3b fa e4 b5 bc 64 95 80 3a 86 69 03 3d
       0.0027781795 -0.022203911 0.0009810147 0.032083057
000040 26 dc a8 3c 52 be c3 38 8e a4 8f 3d 3e ec f9 3c
       0.020612787 9.3337745e-05 0.07013808 0.030508157
000050 1f 8a fa bd 28 71 3a bc 02 b9 ed bb fd b0 1a bb
       -0.12233376 -0.011379518 -0.0072547207 -0.0023604028
000060 76 b7 56 bc d3 12 36 ba 80 35 5e 3c da 3f 81 3d
       -0.013105264 -0.0006945554 0.01356256 0.06311007
000070 a2 d3 0f 3d 44 12 b4 3b 09 39 4d bd ad 19 89 3d
       0.03511394 0.0054953415 -0.05010322 0.066943504
000080 50 2d 28 3b de c6 01 3c 98 86 fe 3a da 87 99 bd
       0.0025661774 0.007920949 0.0019418774 -0.07496615
000090 4c d9 1d 3d 14 d1 a4 bb 86 7d 27 bb 3d 7f 8c 3d
       0.03853731 -0.005029807 -0.0025556996 0.06860206
0000a0 0d 30 b5 bb 0b 03 70 bd c2 d9 91 3d 5b 31 9a ba
       -0.0055294097 -0.058596652 0.07121612 -0.0011763977
0000b0 06 29 32 bd 57 3b 38 3e 66 7d db 3d ae d4 b5 bd
       -0.043496154 0.17991386 0.10717277 -0.08878456
0000c0 72 87 51 3d 1d b0 2d bb ba 35 09 bd ec 75 89 bd
       0.05115456 -0.0026502677 -0.033498503 -0.06711945
0000d0 03 9c 8c bd 59 e5 02 bc c0 43 07 bd c0 f4 55 bd
       -0.068656944 -0.007989251 -0.033023596 -0.052235365
0000e0 8b 6c 92 bd 48 cd d5 3d da 28 19 3d 4a b3 0b 3e
       -0.07149609 0.10439545 0.037392475 0.13642612
0000f0 bc 6b d4 bd 31 6f 94 3d 0c 8d 9d bd 96 65 ac 3d
       -0.10372111 0.072477706 -0.07692918 0.084178135
