logs/ppo-kuka-reach/ppo-kuka-reach_s0/pyt_save/model.pt (torch_old, 40793 bytes, 12 tensors)

log_std f4 [3]
000000 b6 10 44 bf e4 9f 49 bf 55 90 5d bf
       -0.76588 -0.787596 -0.8654836

weight f4 [64, 3]
000000 0f 4d 02 3d f7 c2 b5 3e bb 1d 11 bf 3c 22 c8 be
       0.03181177 0.3550031 -0.5668599 -0.3908862
000010 f1 f9 ad be df eb 62 3e a9 6a 88 3c af 56 00 3f
       -0.33979753 0.2216029 0.016652422 0.5013227
000020 1a e2 df bd 60 88 45 3e 17 b0 e6 bd c7 b2 2e bd
       -0.10931797 0.19290304 -0.11264055 -0.042650964
000030 2e c2 09 bf e1 c4 96 be 03 bf 16 be 41 d4 32 3c
       -0.5381192 -0.29447082 -0.14721303 0.010914863
000040 84 52 a7 3e 12 d7 76 3e 38 fb aa be 74 40 95 be
       0.32680142 0.2410548 -0.3339479 -0.29150736
000050 65 c4 a5 3e 16 df fa 3e 33 cc a3 bd 82 48 ec 3e
       0.323764 0.48998326 -0.07997932 0.4614907
000060 c8 5d af bd d0 86 b9 3d 4c 28 da 3e c5 71 12 bf
       -0.08562809 0.090589166 0.4260887 -0.5720485
000070 7e e0 bf be 35 41 02 be dd d2 58 be 29 4f 08 3f
       -0.3747596 -0.12720187 -0.21174188 0.5324579
000080 d1 88 a0 be 64 10 6a be e0 a1 b8 be 5b a8 e9 be
       -0.31354383 -0.22857815 -0.36061 -0.45636258
000090 71 82 b1 be 1b bc fd 3e 01 1c c2 3e 9d dd 93 3e
       -0.3466983 0.49557576 0.3791199 0.28880015
0000a0 6c c1 d4 bb 39 72 cf be 80 f7 0c 3e bd 9a 0b bf
       -0.0064927842 -0.40516832 0.13766289 -0.54532987
0000b0 d5 94 9e be e6 ff a6 be 1f 70 ed 3e 67 6e 41 3e
       -0.30972925 -0.3261711 0.46374604 0.18889771
0000c0 4d 3e 93 be 9a 6c 23 bd 4a 57 ad 3e b5 75 0f 3f
       -0.2875847 -0.039898492 0.3385566 0.5603898
0000d0 8f 73 b2 3e d3 a1 ec 3c 8e 94 c0 3e 59 bf b3 be
       0.3485379 0.028885758 0.37613338 -0.35106924
0000e0 41 14 7f 3e 29 39 d8 be 31 09 09 bf 4e b3 3d be
       0.2491007 -0.4223111 -0.5352965 -0.1852543
0000f0 25 34 8c 3e 0c b3 94 3e c7 0f ee be 47 bf 35 3e
       0.27383533 0.29042852 -0.46496412 0.17748748
000100 bb 69 d2 3e 82 f9 3f be 54 bf c5 bc 44 28 55 3e
       0.4109629 -0.18747523 -0.024139084 0.20816141
000110 bb 9f 87 3e fd 77 12 3f a7 b1 fa be 8e 50 46 be
       0.26489052 0.5721434 -0.48963663 -0.19366667
000120 b9 d0 8a 3e b5 fe f9 3e 88 9a ed 3e 32 4a 0b 3f
       0.27112368 0.4882714 0.4640696 0.5441009
000130 7e 9e 17 3e 4e 21 01 bf c4 f8 9e ba 81 40 c5 be
       0.14806554 -0.50441444 -0.0012128581 -0.38525775
000140 77 55 0c bf 09 7d 03 3f 9f 61 02 3f 11 db 0b bf
       -0.5481791 0.51362664 0.5093021 -0.54631144
000150 65 cc ff 3d 72 f3 f1 bd 05 5f df 3c 71 19 9d be
       0.12490157 -0.11814012 0.027266989 -0.30683473
000160 09 62 56 3e 35 5a bd be d7 2d 33 3e 04 37 b9 3e
       0.20935835 -0.36982885 0.17497955 0.36174786
000170 96 32 c1 3e ac fb 51 3e d8 10 19 bf c5 25 66 be
       0.37733907 0.20506161 -0.59791327 -0.22475345
000180 72 c0 a4 3e 0b 1d 33 3e a8 3b 0a bf 74 3a c2 be
       0.32178074 0.17491548 -0.5399728 -0.3793522
000190 79 40 1c 3f f8 7c 91 3e 58 61 1f be ed ba 7d be
       0.6103588 0.28415656 -0.15564477 -0.24778338
0001a0 63 4d df be b3 b3 3f 3d 6c 0d 01 bf 1c db c6 be
       -0.4361373 0.046802234 -0.50411105 -0.38839042
0001b0 96 88 98 bc bf 1d da 3d 3d 90 17 be fa 22 b7 3e
       -0.018619817 0.10650205 -0.14801116 0.35768872
0001c0 67 30 ac be 6a 2f 26 3f b5 e5 cb 3e 99 b0 d7 be
       -0.33630678 0.649161 0.3982369 -0.4212692
0001d0 c2 87 a3 bd 49 75 b1 bc 17 c1 3c 3e 56 ad 7f 3c
       -0.07984878 -0.021662371 0.18433033 0.015605291
0001e0 13 ee 14 3e 5a 20 2e 3e bd 5f cc be a0 08 7d 3e
       0.14543943 0.17004529 -0.39916793 0.24710321
0001f0 22 27 17 bf a2 68 db be 2a d2 3d be 72 40 4f be
       -0.59044087 -0.42853266 -0.18537202 -0.20239428
000200 71 59 86 be d0 02 ed be b6 96 22 be 4a 5a 85 3e
       -0.26240113 -0.46291208 -0.15877804 0.26045448
000210 48 ed d6 be ca 7c bb bc d4 fa bc 3e cf 7b e5 bc
       -0.41977906 -0.022886652 0.36910117 -0.028013138
000220 d1 2f 00 3e 8c 8e 6c bd 36 70 00 3e d9 a0 c6 3e
       0.1251824 -0.05775313 0.12542805 0.38794592
000230 83 e9 1a 3f 52 f2 a4 3e 32 db 33 3f 8d a2 1c be
       0.6051256 0.32216126 0.7025634 -0.15296383
000240 54 52 05 bf 0d 45 c5 be a8 15 e1 3e 0e 9f 9f bc
       -0.5207875 -0.38529244 0.43961835 -0.019485023
000250 d9 1d b6 be b0 94 a8 be 5a d1 04 bf c0 f3 02 bf
       -0.35569647 -0.3292594 -0.51881945 -0.51153183
000260 fb 16 a0 bb 5b cc 90 3e e2 4e 97 3e db 36 2b bf
       -0.004885552 0.2828091 0.2955237 -0.6688058
000270 67 ac c2 3e 7c 25 e7 be 71 d9 8d be 3c c8 78 be
       0.38022158 -0.45145786 -0.27704957 -0.24295133
000280 24 d1 2b be 2a 9f 80 bc 35 d2 0b bf 99 c2 de be
       -0.16779 -0.015700895 -0.54617625 -0.4350784
000290 33 8f 22 be 47 7c 39 3d 3e 39 c6 be 7c e1 ac 3e
       -0.15874939 0.045284536 -0.38715547 0.3376578
0002a0 15 6c fd be 7c 33 f7 bd 30 10 f5 3e 3d 47 54 be
       -0.49496523 -0.12070367 0.47863913 -0.207303
0002b0 4d 8c 0f 3f e6 19 af 3d 33 fc 09 bf 81 b3 f3 3e
       0.56073457 0.085498616 -0.5390045 0.47597888
0002c0 f8 48 ab 3c 9c c9 94 be 91 d4 ea 3e 49 92 12 bf
       0.020908818 -0.29060066 0.458653 -0.57254463
0002d0 f6 ad 8c 3c 45 b2 16 be 74 df a6 3e ec 8d 22 3e
       0.017172795 -0.14716442 0.32592356 0.15874451
0002e0 14 16 a3 3e c6 b8 3e 3e 92 b9 c1 bd 40 90 97 bd
       0.31852782 0.18625173 -0.09459223 -0.074005604
0002f0 80 39 04 bf 68 d4 af 3e 97 a1 01 3f 6e d1 98 3e
       -0.5165024 0.3434174 0.5063719 0.29847282

bias f4 [64]
000000 63 aa ad be 88 71 20 3d a5 18 c8 be a3 ea 95 be
       -0.33919057 0.03917077 -0.39081302 -0.29280576
000010 60 b9 b0 be e9 98 34 3e 34 0e a6 be 3f cf b3 bc
       -0.3451643 0.17636456 -0.3243271 -0.021949409
000020 c7 31 ff 3c e2 56 b4 3e 58 c4 c6 be ed f0 cb be
       0.031151665 0.35222536 -0.38821673 -0.3983225
000030 d2 a1 9d be aa f8 ca 3e e6 c2 3b be ac 41 f4 3e
       -0.30787522 0.3964284 -0.18336067 0.47706354
000040 6b b4 5a 3e bd da 44 3d dc b4 3d bd 6d 58 f6 bd
       0.21357886 0.048060168 -0.04631506 -0.12028585
000050 15 7b 8d 3d 74 02 e3 bd bb 51 b0 b9 cc 4d 60 3d
       0.06908242 -0.11084452 -0.0003363023 0.054761693
000060 c2 8b e0 be af e5 93 be d7 39 e0 3e b7 ec f0 be
       -0.43856627 -0.28886172 0.43794128 -0.470556
000070 7b 32 52 bd 4a f2 12 3f 1c c9 2d 3e 29 56 98 bc
       -0.051317673 0.57400954 0.16971248 -0.018595772
000080 c6 a2 f1 be 08 ef 91 3e 19 20 c3 be 8b a3 22 be
       -0.471945 0.2850268 -0.38110426 -0.15882699
000090 83 92 48 be 79 db de bd 3b 04 ad bc 76 10 ea 3e
       -0.1958714 -0.10881705 -0.021120181 0.45715684
0000a0 4a 6c 20 3d 3f 71 fe 3e 33 cf a4 3e 39 f4 bb be
       0.039165772 0.49695775 0.3218933 -0.36709765
0000b0 b0 47 7c 3e 1b 6b b1 be 95 f8 75 be a4 78 1d 3e
       0.24636722 -0.34652027 -0.24020608 0.15378052
0000c0 0d 84 47 3e f1 66 c7 3e fa c6 3e be e0 45 25 bc
       0.19483967 0.38945726 -0.18630591 -0.01008746
0000d0 08 b0 96 3e 8d d8 07 bf d7 16 d3 3e d5 d0 e3 be
       0.29431176 -0.53064805 0.41228363 -0.44495264
0000e0 22 cd 07 3d 9a 4b 60 bd 61 bf 97 be 38 99 b9 3d
       0.033154614 -0.0547596 -0.29638198 0.09062427
0000f0 1a 99 e4 3e 32 d5 1e be 28 2a ad be 56 87 4d be
       0.44648057 -0.15511015 -0.33821225 -0.20071158

weight f4 [64, 64]
000000 59 5b 02 be 44 17 84 3c e5 51 8a bd b4 07 a6 bd
       -0.12730159 0.016124375 -0.067539014 -0.08106938
000010 1c 12 b4 bd 96 89 a2 3d fe ac 52 3d 7b ed 02 3e
       -0.087925166 0.07936399 0.05143451 0.12785904
000020 f2 be a3 bc 26 23 93 bd 96 d0 3f bd 6b 9c cf 3c
       -0.01998851 -0.071844384 -0.046829782 0.02534314
000030 71 ae b0 3d 2e 9b 38 3d 86 49 76 bd 66 1b 6f bd
       0.08627022 0.045069866 -0.06012871 -0.05837574
000040 17 bb 11 be b7 de 60 3d 42 45 1f bd 41 fd 0a be
       -0.14231525 0.054899897 -0.03888441 -0.13573171
000050 96 78 07 3e 79 e9 45 bd 0d e7 1a bc 38 15 83 3d
       0.13229594 -0.04831836 -0.009454501 0.064005315
000060 76 b1 d8 3a 63 76 b4 bc d9 6c bc bd df b6 e9 3d
       0.001653238 -0.022029107 -0.092004485 0.11411833
000070 2f 28 9f 3d 6d f0 da 3d 14 19 e1 bc fd 2e 74 3d
       0.07771336 0.10690389 -0.027477778 0.059615124
000080 df ff d3 bc 0a e9 7d bc 6a 0d b1 bd c1 c3 01 3d
       -0.025878845 -0.015497455 -0.08645137 0.031680826
000090 ef 3f 09 3d 4f b9 27 3d 78 0f 44 3b e3 df 8f bd
       0.033508237 0.04094821 0.0029916447 -0.07025125
0000a0 8c 19 e4 3d 32 4f a2 bd 01 d7 58 3d 50 78 69 bd
       0.11137685 -0.079252616 0.05293942 -0.056999505
0000b0 4f a4 d3 bd 33 0d 88 3c 65 3d 88 bd d9 98 57 3d
       -0.10334074 0.016607856 -0.06652335 0.052636
0000c0 a8 41 6d bd a8 32 b0 bd 6e 51 1c ba ff 81 b1 3d
       -0.057923943 -0.08603412 -0.00059630617 0.08667373
0000d0 af a8 88 3d 5b 7a ce bc 6f a3 f5 bd f0 1e dd bc
       0.06672799 -0.025204828 -0.11994063 -0.026992291
0000e0 04 cc ee 3b ab 3f 83 bd 44 7c ea 3c cc 72 5b 3d
       0.007287504 -0.06408628 0.028623708 0.053576276
0000f0 14 b4 70 bd 39 98 33 3c fb 75 2f 3d fc 4c 13 3d
       -0.058765486 0.010961586 0.042837124 0.03596209
000100 bb 6f 89 3c dc ba a4 3c 95 16 bc bd 12 bb 35 3d
       0.01677691 0.020108633 -0.09183995 0.044367857
000110 ec 67 c7 3d 12 18 a6 3d 07 01 b3 3d fd e5 2f 3d
       0.097366184 0.0811006 0.0874043 0.042943943
000120 e7 b3 ed 3b 4d 98 b4 bd 4e f2 cd bd 68 49 b5 bd
       0.007254112 -0.088181116 -0.100559816 -0.08851892
000130 4a 95 01 3e 01 60 8c 3d 40 d9 87 bc 6d d9 6e 3b
       0.12654606 0.06854249 -0.016583085 0.0036445514
000140 ca a5 50 3d 0c 96 ff 3d a2 1a 1a 3e ca 32 e3 3d
       0.05093936 0.12479791 0.15049222 0.110936716
000150 8c 82 2d bd dc ed a3 bd 7a e0 24 3c 8f 77 af 3d
       -0.042360827 -0.080043525 0.010063285 0.08567726
000160 7a 33 82 bd 18 5f 2f 3e 66 5a 4b 3d 52 75 a5 3d
       -0.063574746 0.17126119 0.049646758 0.08079018
000170 84 d0 32 3d 63 32 48 3b 6a 0b 84 bd 13 4d 1e 3e
       0.043655887 0.003054761 -0.064474896 0.15459089
000180 f2 1a b4 39 b4 d3 4b bd fa 73 19 3d ff b8 d9 3d
       0.0003435235 -0.049762443 0.03746412 0.10630988
000190 52 0c 12 bd 31 06 2b 3e 1d f3 4a bd f9 68 11 3c
       -0.03565628 0.1670158 -0.049548257 0.008875125
0001a0 b0 71 bd bd 58 09 07 be 62 68 eb bd 70 85 db 3d
       -0.092502 -0.13187158 -0.11494519 0.107188106
0001b0 4e e7 c3 3b c6 d2 05 3e 09 86 d0 3d 5f e4 0c be
       0.0059785014 0.13068685 0.10181815 -0.13758992
0001c0 ac 74 b8 bd ce 87 02 bd 5b d1 8a bd c4 21 86 3d
       -0.090066284 -0.031867795 -0.06778213 0.06549409
0001d0 b6 8e c2 bd 5f 7f 3f bd 1e 91 0a be 7f 9e 31 bd
       -0.09499876 -0.04675233 -0.1353192 -0.043364044
0001e0 f4 43 c0 3d 73 1e 8d 3d 36 ec ba 3d 7c 82 c4 bc
       0.09387961 0.06890573 0.09127085 -0.023988001
0001f0 fb 68 cb 3d 2b 62 14 bd 89 d5 8f 3d fa ad d1 3d
       0.09932133 -0.036226433 0.070231505 0.102382615
000200 ca a3 a3 3c d9 68 0a 3e 6e 4a 26 3d 59 4c 79 3d
       0.019975562 0.13516559 0.040598325 0.060863826
000210 47 92 51 bd 06 cb 8c 3d a9 ef 9f 3b 04 93 ca bc
       -0.05116489 0.06874661 0.0048808646 -0.024728306
000220 b4 7c a7 bd dd 1f 87 bc c7 e1 f2 bd 29 ff 99 3d
       -0.08178082 -0.016494686 -0.1185947 0.07519371
000230 48 94 86 3d f4 8d 16 3a 54 b4 94 bd b8 2b eb 3d
       0.06571251 0.00057431986 -0.07260957 0.11482948
000240 cf 62 e3 3d 37 f1 05 3c 8c 95 31 bd f2 73 f0 3d
       0.111028306 0.008175186 -0.04335551 0.11740865
000250 b8 a2 52 3d 34 18 1d be 16 67 7d 3d da 36 ed 3d
       0.051424712 -0.15341264 0.06186589 0.11582728
000260 c9 4f 99 bd 16 a4 62 3c 17 0c 47 bd 22 fc 64 bd
       -0.07485921 0.013833066 -0.048595514 -0.055904515
000270 86 6e bf 3d 4e b0 c6 3c e5 d5 a8 bd a5 68 ca bb
       0.093472525 0.02425399 -0.08243922 -0.0061770254
000280 0a ce 69 bd c2 aa 76 bc a8 c4 14 b9 ee 20 f1 3d
       -0.05708126 -0.01505536 -0.0001418764 0.11773859
000290 db 83 33 bc 7b d5 8e bd b0 5c f3 3c fe fd 9a 3d
       -0.01095673 -0.06974312 0.029707283 0.075679764
0002a0 ba 17 8c 3d 88 85 bb bd 14 76 8a 3b 82 95 d5 bd
       0.06840463 -0.091563284 0.004225502 -0.10428907
0002b0 f2 95 32 bc 6a dc e4 3c df 41 f9 bd 63 6a 33 3d
       -0.010900008 0.027937133 -0.12170767 0.04380263
0002c0 1d 85 23 3e 5d b3 fd 3c 0b bc ab bd 17 34 5b bd
       0.15968747 0.030969316 -0.08385476 -0.053516474
0002d0 f6 b5 4b 3d 79 3a e1 bd 8c 35 dd 3d f6 13 04 be
       0.04973408 -0.10997481 0.10801229 -0.1289824
0002e0 e1 8e f6 bd 98 c6 19 be c7 7d 39 bd 90 6c 69 3d
       -0.12038971 -0.15017164 -0.045285966 0.0569883
0002f0 a8 f2 cd bd 9e ee 79 3d 78 6a 80 bd 3e 27 e0 bc
       -0.10056049 0.06101858 -0.06270307 -0.027362462
000300 af 9b 54 bc 6e 66 c6 bd 52 1e ab 3d 3d ad 45 3d
       -0.012976571 -0.09687506 0.083553925 0.048260916
000310 ef 35 f3 3d 1e 38 95 3d bf c5 b7 bd 94 68 cb 3d
       0.118755214 0.07286094 -0.08973264 0.09932056
000320 f4 e4 a8 3c f0 3c e9 3d 8c c5 ef bd 19 20 34 bd
       0.020616986 0.11388576 -0.11707601 -0.043975923
000330 b3 25 0e be c0 39 17 bd 09 fd 90 3c 06 ad 9f bd
       -0.13881569 -0.03692031 0.017698782 -0.077966735
000340 91 c2 9b 3d 0c 53 7b 3d 99 72 a0 3c e3 f7 a1 bd
       0.0760547 0.061358497 0.019585894 -0.07908609
000350 c7 a5 cb bd fa 12 bd bd f5 89 89 3c 2d d7 07 3e
       -0.09943729 -0.09232135 0.016789416 0.13265677
000360 8b b3 3a 3d a7 ef a3 bd cc 3f 7f 3d 41 3f 23 be
       0.04558138 -0.080046944 0.0623167 -0.15942098
000370 bb 08 16 be 19 7b 9e 3d 58 67 86 bd 3c b0 a1 3d
       -0.14651768 0.07738323 -0.0656268 0.07894942
000380 9b a0 e4 bd 07 0c 23 bd 81 fb e7 bd e0 84 80 3d
       -0.111634456 -0.039806392 -0.113272674 0.06275344
000390 5b 7d e0 bc 5b 05 a5 3d e8 77 af 3d 91 af aa 3d
       -0.027403524 0.08057662 0.08567792 0.08334268
0003a0 6d 0d 9d 3b c0 c1 b0 bc 66 b8 4e bb 60 d6 0b 3c
       0.0047928602 -0.021576762 -0.0031543016 0.008534998
0003b0 a4 fc e7 3d 12 78 d2 bd 1d 9e 9d 3d 22 6a 8b bc
       0.11327484 -0.10276808 0.07696173 -0.017018382
0003c0 3e 84 3f bd 18 1e 45 bd b7 2e e4 3d 45 0a d4 3d
       -0.046756975 -0.048124403 0.11141723 0.10353521
0003d0 73 08 ce bd 7c fa 9a 3d 6e 1d dc 3d 3e f7 72 3d
       -0.10060205 0.07567307 0.10747801 0.05931782
0003e0 68 5a e9 3d 14 e9 ab bd 0f ee d9 3c 5b cf 45 3d
       0.11394197 -0.083940655 0.026602773 0.048293453
0003f0 79 b5 b0 bc 2f 3f 78 3b 51 fc 40 bd 97 27 9a 3c
       -0.021570908 0.0037879457 -0.047115628 0.018817706

bias f4 [64]
000000 6f fa 68 bd 83 75 96 3b d7 ce 07 3e b7 fe 14 3d
       -0.056879457 0.004591645 0.13262497 0.036375728
000010 0c a0 68 bd 29 21 03 3c 45 76 02 be 10 4d 8e bd
       -0.056793258 0.0080035115 -0.12740429 -0.06948292
000020 f0 4a d1 bc 65 12 88 bd 19 2e e1 3d 5e fd ed 3c
       -0.025548428 -0.066441335 0.109951206 0.029051479
000030 4f 54 f0 3d 73 e9 b9 bc 5c c4 2b bd f2 e0 0c 3d
       0.117348306 -0.022694325 -0.04193531 0.034394212
000040 34 ab 03 bd 1e dd 63 bd 1d a3 13 be a2 2c d6 3d
       -0.032145694 -0.055630796 -0.14417692 0.10457732
000050 47 26 08 3e 47 51 f2 bd e6 7b 56 bd 12 a4 d9 bd
       0.13295852 -0.11831909 -0.052364253 -0.10626997
000060 95 cf 4b bd 49 cc df 3d c1 96 88 3d 3c 01 fe 3a
       -0.049758513 0.10927636 0.06669379 0.001937903
000070 c6 36 f8 3c 1f d9 3f 3d 85 68 87 3d ed d8 da bd
       0.030299556 0.046837922 0.066117324 -0.106859066
000080 c4 86 56 3d 70 bf c7 bd f4 cb ce bd a7 84 32 bd
       0.052374616 -0.09753311 -0.10097495 -0.04358354
000090 93 82 d1 bc e9 ed dc bd a9 43 55 3c eb c1 d0 3c
       -0.025574958 -0.10787565 0.01301662 0.025483092
0000a0 55 40 60 bd e0 ef 1f 3d e2 56 f4 3d d4 66 12 bd
       -0.05474885 0.039047122 0.11930634 -0.035742596
0000b0 82 36 6e bd c9 96 00 be ba aa e7 bd 99 df 79 bd
       -0.05815745 -0.1255752 -0.113118604 -0.061004255
0000c0 c0 ad a0 bd a3 7e 7e bd 8e 61 54 3d cc 99 25 3d
       -0.0784564 -0.06213249 0.051850848 0.040429875
0000d0 f9 8b e7 3d 35 08 f9 3d 74 e5 13 bd c6 17 b5 bc
       0.113059945 0.121597685 -0.036107495 -0.022106063
0000e0 f1 b6 cb b9 c2 48 a8 bd 6b 0a 91 3d f2 1a 1d bc
       -0.0003885548 -0.082170025 0.07082065 -0.009588944
0000f0 27 95 fe bd c0 0c dd bd 02 2d 94 bd 65 9f 88 3c
       -0.12430792 -0.107934475 -0.07235147 0.016677568

weight f4 [3, 64]
000000 61 62 f8 3d 7a 11 a7 3d 25 84 3d bd 18 e9 34 bd
       0.12128139 0.0815763 -0.0462686 -0.044167608
000010 60 1a 4e bd 53 36 48 bd 4a 34 f0 bc a8 86 03 be
       -0.050318122 -0.048879933 -0.029321808 -0.12844336
000020 93 0f 00 3e 19 da 27 be ae 8b 68 bd 0d c3 8f 3b
       0.12505941 -0.16391791 -0.056773834 0.0043872655
000030 bd cb bb bd 34 ee 50 3d d3 b7 ba 3d aa 9d 15 3e
       -0.09169719 0.05100842 0.09117093 0.14610925
000040 99 15 0b 3e fa d5 75 bc 05 ed a2 3d 94 8c dd bb
       0.13582458 -0.015004629 0.07955364 -0.006761143
000050 a4 9a 91 bd 34 40 21 3d 2b 5b 6f 3d eb 87 d9 3d
       -0.071095735 0.03936787 0.058436554 0.106216274
000060 34 5b ac 3d 73 8d 47 3d e7 1c 7f 3d 35 2f 7f bc
       0.08415833 0.04871888 0.062283423 -0.01557522
000070 39 85 2f 3d f4 00 90 3c f7 ff 3b be 44 84 5a 3d
       0.04285166 0.01757858 -0.18359362 0.053348795
000080 94 ee 75 bd 10 88 5c bd be f5 72 3d 67 6c 83 3d
       -0.06004198 -0.053840697 0.05931639 0.064171605
000090 59 2d 0a 3d ba 8f 40 3d 67 70 92 3d c2 8b 19 3e
       0.033734653 0.04701207 0.07150345 0.1499472
0000a0 77 1d 12 3e 28 60 27 3d b0 2f 60 bd cc 8d b5 3d
       0.14269052 0.040863186 -0.05473298 0.08864936
0000b0 6c 90 c0 3d 8c 11 31 3d ae c2 c3 3c 8f ec 87 bd
       0.09402546 0.043229625 0.023896541 -0.06636917
0000c0 4c 9b b2 3b 28 e2 48 3e 1e 9d b3 3d 06 4e b7 bd
       0.0054506417 0.19617522 0.08770202 -0.08950429
0000d0 6e 5f 8e 3d b2 32 e4 3d 74 99 bd 3c 6f 20 b1 bd
       0.069517955 0.11142482 0.023144461 -0.08648764
0000e0 6d c5 af 3d ed c3 02 bd 4a 86 7f 3d 1f 27 07 be
       0.08582578 -0.03192513 0.062383927 -0.13198517
0000f0 d1 da 35 3d f7 5d cc bc 24 2c 00 3d 14 48 ea 3d
       0.044398133 -0.02494715 0.031292096 0.11439529
000100 b3 73 0e 3d 9a d9 8e bd 92 04 9a bd 36 c5 87 bd
       0.034778308 -0.06975098 -0.07520403 -0.06629412
000110 e0 79 fc 3c 17 30 94 3d 8a 5e 2a bc e0 0d 9c bc
       0.030819833 0.07235735 -0.010398516 -0.019049585
000120 27 a7 3b 3d 53 90 c5 bd 50 2e c2 3d 86 0e 84 bd
       0.045813706 -0.09646668 0.0948149 -0.064480826
000130 12 c9 ae 3d fc 45 ad 3d 8d 88 03 be ba 29 97 3c
       0.08534445 0.08460614 -0.12845059 0.018452514
000140 23 c0 b8 bd ef ce bf 3d d0 9d 98 3d a4 fa 45 bd
       -0.09021022 0.09365641 0.07451975 -0.048334733
000150 66 8c 49 3d fc 63 a0 3c 22 2d bc 3d b7 29 6e 3d
       0.04920616 0.019578926 0.09188296 0.05814525
000160 2a 91 b4 3d 76 df eb bd 37 10 17 3e 1a 93 9e 3d
       0.0881675 -0.11517231 0.14752279 0.07742901
000170 18 c3 60 3d 43 fd 76 3c bb 79 a8 3d 9c 5b eb 3d
       0.054873556 0.015075031 0.08226343 0.114920825
000180 95 25 25 bc b5 92 c5 bd 13 d6 df 3d 34 a7 66 bc
       -0.010079761 -0.09647123 0.10929503 -0.01407795
000190 ac e4 2a 3b 3c 1d ab 3d 45 93 80 3d d9 31 e9 3c
       0.002607624 0.083551854 0.062780894 0.028466152
0001a0 23 29 01 bd 8d 9d 3e bd 36 df 2d 3e 87 8f c8 3d
       -0.03153337 -0.04653697 0.1697968 0.09793001
0001b0 52 d5 c6 3c ea dd cb 3d 66 27 f4 bd cd c3 25 3d
       0.02427164 0.09954436 -0.11921577 0.040469933
0001c0 d1 84 d8 bd 2f 1b 95 3c 37 4c fc bd 86 68 b3 bd
       -0.10572208 0.018201439 -0.12319224 -0.08760171
0001d0 99 44 16 be a0 e8 ba 3d 52 df 14 bc 0a 21 e5 3b
       -0.14674605 0.09126401 -0.009086447 0.006992464
0001e0 0a 37 bf 3c c0 81 4c 3c fe 25 3d bd 7b 67 80 bd
       0.023341674 0.012482107 -0.04617881 -0.06269737
0001f0 0f 88 dd bc 56 43 86 bd 3d a0 27 bc 57 db 48 3d
       -0.027042417 -0.06555812 -0.010231075 0.049037304
000200 d8 25 77 bd 8b 73 9f 3d cb 55 d6 bd d6 71 75 bd
       -0.060338825 0.0778571 -0.104655825 -0.059923016
000210 cd 03 30 3d b5 b2 05 3d da 99 eb 3d ea b2 ba bc
       0.042972375 0.03264113 0.11503954 -0.022790391
000220 fd ec 39 bd 89 47 59 bd 8c 99 9d bc 5f 62 06 bd
       -0.045392025 -0.053046737 -0.019238256 -0.032808658
000230 7a 4c e1 bd f9 18 ad bc 36 fa 4c 3d 06 90 5c bd
       -0.11000915 -0.021130072 0.050043307 -0.05384829
000240 5f 70 e7 bc c0 29 31 3d d0 0b 08 3e 17 1d 3c bd
       -0.028251825 0.043252707 0.13285756 -0.04592618
000250 5a c8 bb bd 2f 86 05 bc 35 95 4c 3d 6e 4c 4a 3d
       -0.091690734 -0.008149668 0.049946982 0.049389295
000260 42 f7 44 bc f7 80 8d bd b4 16 44 bd 6c e7 66 bd
       -0.0120218415 -0.06909364 -0.047873214 -0.056373045
000270 0a 12 59 3d d4 7c 9b bd 36 32 be 3c 09 8f e6 3c
       0.05299572 -0.075921685 0.023217302 0.028144376
000280 36 5b 11 bd 2c 78 9d bd b2 9b bb 3d 3f 56 66 3c
       -0.035487376 -0.076889366 0.09160556 0.014058649
000290 62 1b 72 3d ea 2c 89 bd 83 73 a6 bd 55 2c 79 bd
       0.059108146 -0.0669802 -0.08127501 -0.060833294
0002a0 24 76 d0 3c ec 0d e6 bc 90 37 dd bc e1 46 f0 3d
       0.025446959 -0.02808281 -0.027004033 0.11732269
0002b0 39 8b 9e bd 6d 67 94 3d 2d 9b ba 3d bc b8 02 bd
       -0.07741398 0.072462894 0.09111629 -0.031914458
0002c0 ed 8b a0 bd e5 41 45 3c 55 ee 2e 3c 49 99 94 3d
       -0.07839189 0.012039636 0.01067694 0.07255799
0002d0 e4 06 4f bd 69 29 5e bd 42 86 8e bd f2 70 09 be
       -0.05054368 -0.05423871 -0.069592014 -0.13421991
0002e0 58 12 bd 3c 2c bd a5 bd f2 e8 86 bd b4 3a b6 bc
       0.023080036 -0.08092722 -0.065873995 -0.022244789
0002f0 dd b8 d6 3d 46 95 aa 3d fb eb c5 bd b9 9c b1 3d
       0.104844786 0.08329253 -0.0966415 0.086724706

bias f4 [3]
000000 f8 62 cc 3d ba b9 c3 3d c3 df 0e bc
       0.09979814 0.09556909 -0.008720341

weight f4 [64, 3]
000000 6a 83 0e 3f 92 92 2d be 4b 28 e3 bf 62 b2 92 be
       0.5566927 -0.16950443 -1.7746671 -0.2865172
000010 b5 08 36 bc 69 d6 1f c0 93 ef aa be 45 e5 2d 3f
       -0.011110474 -2.4974616 -0.33385906 0.6792796
000020 56 c1 e8 3f 4a f4 f3 3e 2e 04 80 be 28 5a ed bf
       1.8184001 0.47647315 -0.2500319 -1.8543139
000030 a7 88 17 3f 5e 7e 1a bf 74 ba 20 be b6 9e 8a be
       0.5919289 -0.6034907 -0.15696126 -0.27074212
000040 09 53 26 be ce 46 ae bf 93 2b fa 3e 06 a0 02 3f
       -0.16242613 -1.3615358 0.4886137 0.51025426
000050 c6 e8 22 3f 57 c0 29 3f d3 69 f5 bd 34 90 ab bf
       0.63636434 0.6630911 -0.11983075 -1.3403382
000060 fc 49 02 bf 5e 1c 52 3e a4 9a fd 3f 32 5b 39 3e
       -0.5089414 0.20518634 1.9812818 0.18101195
000070 54 8f 3f be 8b 03 2d 40 47 b0 58 3e 1c ea a2 3e
       -0.18707019 2.7033412 0.21160994 0.31819236
000080 87 89 5e bf 09 16 10 3e 73 83 49 be b5 70 d5 3f
       -0.869286 0.14070906 -0.1967905 1.667502
000090 20 3d f0 be f8 89 1a 3f 4d 8a 94 3e 56 11 ef 3e
       -0.46921635 0.60366774 0.29011765 0.46692914
0000a0 6d 73 1f bf 38 4d 7c 3f 30 b0 38 bf 52 bc e4 3e
       -0.622855 0.98555326 -0.7214384 0.44674927
0000b0 a8 4a 07 bf f4 da 10 bf d2 a5 71 3e 19 2c e8 3e
       -0.5284829 -0.56584096 0.23598412 0.45346144
0000c0 32 f2 0d 3f 24 7c aa be fc 76 c6 3f 87 cb 7b be
       0.55447686 -0.33297837 1.5505061 -0.24589358
0000d0 72 af 2f bf 60 a8 aa 3f f6 da c7 be 83 cb 15 3f
       -0.68627083 1.3332634 -0.3903424 0.5851366
0000e0 45 cf 45 3f 80 9a 93 3a 3d 3c 85 bf fa 76 e7 bf
       0.77269393 0.0011261255 -1.0409008 -1.8083184
0000f0 94 73 84 bd e1 6e b8 3e 59 c1 0e c0 bf 4a 17 bf
       -0.06467357 0.36022094 -2.230551 -0.5909843
000100 5d 01 84 3f 98 db ff 3f c8 11 0e be 2a c7 2f 3e
       1.0312916 1.998889 -0.1387397 0.17165819
000110 11 53 db bf 40 03 65 3e b6 75 fb be f9 20 d2 bf
       -1.7134725 0.22364521 -0.49113244 -1.6416312
000120 31 6e c6 be 43 0f 2d bf e2 9f c3 3f 51 1a 4c be
       -0.38755944 -0.6760141 1.5283167 -0.19931914
000130 ce f8 c2 3f 24 09 e2 3f ab 6a 73 3d c9 96 f6 3d
       1.5232179 1.765904 0.0594279 0.12040479
000140 e2 ff 93 3f 4e 63 0c be 86 48 ba be 24 cb 43 3e
       1.1562464 -0.13709757 -0.36383456 0.19120461
000150 88 90 22 bf 03 4e e3 3e f9 59 78 bf 0e 7f a3 be
       -0.6350179 0.44395456 -0.9701229 -0.31932873
000160 f2 d7 76 bc 74 9a a6 3f 91 67 36 bf 5d 6a 7d 3f
       -0.015066134 1.3015885 -0.7125178 0.9899042
000170 d1 c6 e3 3f e8 a3 c2 be 43 17 75 3e 8c a5 c7 3f
       1.7795049 -0.38015676 0.23934655 1.5597396
000180 61 82 36 bf 15 51 10 3f a5 68 8e 3e f4 c6 ed be
       -0.7129269 0.5637372 0.27814212 -0.46440852
000190 cc b3 cf bb 79 fc e4 3f 8a d1 61 be 6e 5e 98 3e
       -0.006338572 1.7889549 -0.22052589 0.29759544
0001a0 f9 01 87 3f 1c 99 3e bf 29 ae 45 3f fd 8e b4 bf
       1.0547477 -0.74452376 0.7721887 -1.4106137
0001b0 57 29 ba be 9e b6 0d 3e c6 da a6 bf f5 a1 71 3e
       -0.36359665 0.13839194 -1.3035514 0.23596938
0001c0 49 c3 bf 3e 90 04 b2 3f a6 a3 a6 3e d3 c3 95 be
       0.37453678 1.3907642 0.3254673 -0.29250965
0001d0 47 96 73 bf 05 e6 1e 3e bd c9 ea bc e9 86 27 c0
       -0.9515118 0.15517433 -0.02866065 -2.6176093
0001e0 a2 3c 15 3d 18 d2 86 bf 71 c3 19 c0 c9 ac 1d be
       0.036434777 -1.0532866 -2.4025538 -0.15397944
0001f0 f9 37 81 3f 2e f7 35 3f 4f e6 b9 3e 43 fa d5 be
       1.0095206 0.7108029 0.36308524 -0.41792497
000200 4d b3 92 3f 7f 30 f6 bd 1c c1 55 be e5 1e 18 40
       1.1460968 -0.12020969 -0.20874447 2.3768857
000210 fb 0b 15 3f d8 01 28 bf ca 97 3b 3e d9 70 3a be
       0.58221406 -0.65627813 0.18319622 -0.1820711
000220 b2 94 0b bf e8 df 90 bf 85 55 37 3e 3f 0e 49 bf
       -0.54523766 -1.1318331 0.17903717 -0.7853736
000230 4f 09 0a 40 e3 a2 d1 3e 40 d2 b0 be ee 88 ef bf
       2.1568182 0.40944585 -0.34535408 -1.8713663
000240 3a e3 74 be 9e 2a 32 3e 7c 37 ec 3f e4 af 81 3e
       -0.23914805 0.1739907 1.8454432 0.25329506
000250 db ab 5d 3e 35 6d 32 bf 5f 02 f3 3e 11 10 64 3f
       0.21647589 -0.69697887 0.47462747 0.89087015
000260 15 f8 07 c0 13 e9 09 be 0a ad 9d be 82 1c 02 40
       -2.1245167 -0.13467817 -0.3079608 2.03299
000270 8d 1a 32 3f 2d 8c 62 bf 6d b8 4e 3f dc d6 d3 3e
       0.69571763 -0.8849514 0.8075016 0.41374862
000280 c9 34 21 bf eb dd f1 3f 2f e3 49 bc 54 f1 ba 3d
       -0.6297117 1.8895849 -0.012322231 0.09128061
000290 a7 67 fe 3e bc ad 10 3e cc ce 14 3e a3 c4 8e be
       0.49688455 0.14128774 0.14532012 -0.27884397
0002a0 4e 76 f1 3e 80 4c c9 be 34 73 f3 bf 2b 48 23 3f
       0.47160572 -0.39316177 -1.9019532 0.63781995
0002b0 a6 96 65 bf 49 77 e8 bf db 29 b9 3e 2e ad 0e be
       -0.89682996 -1.8161403 0.36164746 -0.1393325
0002c0 58 c5 fd 3f 0b eb 65 3d b8 ea 28 3f af 45 68 be
       1.982585 0.056132358 0.6598315 -0.22682832
0002d0 59 d3 0b 3f a3 0e 49 bf ea 80 cd 3e 74 53 4b 3e
       0.54619366 -0.7853796 0.40137416 0.19856054
0002e0 c4 5c 3b be 06 bc f2 bf 48 2d 1e 3d be a9 3f 3f
       -0.18297106 -1.896363 0.038617402 0.7486838
0002f0 b0 66 aa bc 36 41 30 3f 7f 16 89 3c 11 cf 27 3f
       -0.020800918 0.68849504 0.01673436 0.65550333

bias f4 [64]
000000 fe 57 8b be 09 ff 93 be 11 a6 32 be 6c aa ef bd
       -0.2721557 -0.28905514 -0.17446162 -0.11702427
000010 07 3d 70 be 2e 69 d5 3e 71 30 ce be 63 ea d1 be
       -0.2346078 0.41681808 -0.40271333 -0.40999135
000020 46 04 5f bd 51 be cd 3e 85 c5 98 be 14 20 0a 3f
       -0.054447435 0.40184262 -0.29838195 0.539552
000030 b1 11 45 3e d1 7f 07 3d f7 2b b7 3e bd 7a a5 3e
       0.1924503 0.03308088 0.3577573 0.32320204
000040 37 d2 89 be 85 f6 73 3d 5e 76 c1 3e bb ec ba 3e
       -0.26918194 0.05956127 0.3778562 0.36508736
000050 14 44 96 be 58 87 61 bd 48 0f 9b 3e 77 8b 8a 3e
       -0.29348814 -0.055060714 0.30285096 0.27059528
000060 9a c2 09 3e 29 7c b4 be 71 a1 e4 be 28 d5 86 3d
       0.13453141 -0.35250977 -0.4465442 0.06583625
000070 58 41 82 3e fe fc 6b 3d 2c aa d7 be 31 b6 5e bc
       0.25440478 0.05761432 -0.42122018 -0.0135932425
000080 88 21 09 3f 86 91 e5 be c9 37 e4 be 74 3b a5 3e
       0.5356679 -0.44837588 -0.4457381 0.32271922
000090 78 af 03 3f 4d a1 10 bf 37 4b f0 be c2 c1 11 be
       0.5143962 -0.56496125 -0.46932384 -0.14234069
0000a0 58 6d 12 3f cb 6a d5 be f6 82 04 3e 53 09 d0 3e
       0.57198095 -0.4168304 0.12940583 0.40632114
0000b0 92 eb 22 be d0 b7 1f 3e 8b 7d 7a be e6 c7 7d bd
       -0.15910175 0.15597463 -0.24461953 -0.061958216
0000c0 14 0e e0 3e 1d 71 07 3c 71 f2 a1 3e 60 5a 5e 3d
       0.4376074 0.008266714 0.3163028 0.054285407
0000d0 36 3c 6a be 7c d6 bc 3c b9 27 8c 3e 94 78 12 be
       -0.22874531 0.023051493 0.27374056 -0.1430381
0000e0 14 fb c8 be d6 85 0b be 55 10 4f 3e cf 2b a3 3e
       -0.39254057 -0.13625273 0.20221074 0.3186936
0000f0 47 b5 33 bc 11 ea c7 be 54 b6 c6 be b0 2d f4 be
       -0.010968513 -0.39045766 -0.3881098 -0.47691107

weight f4 [64, 64]
000000 4e 9b 65 3e 93 db 2d 3e 65 91 8d bd d9 08 14 3e
       0.22422525 0.16978292 -0.069124974 0.144565
000010 88 81 07 3e 7a 31 17 3e 17 52 7f bc 09 cc 03 3e
       0.13233006 0.14764968 -0.015583537 0.12870802
000020 56 cb a3 bc e4 91 76 bb f5 4b d1 bd d9 30 d3 bd
       -0.019994419 -0.0037623579 -0.10219566 -0.10312051
000030 79 16 59 bc a1 0d cb bc d6 14 5a bd 38 5d d7 bd
       -0.013249987 -0.024786772 -0.053242527 -0.10515827
000040 79 92 94 be 20 93 d3 3d 8a 18 49 3d bb b4 ba 3d
       -0.29018 0.10330796 0.049095668 0.09116503
000050 8e a2 a8 3d 4d f1 3a be 1f 5e 26 3e 47 a2 1e bd
       0.0823413 -0.18256111 0.16246842 -0.03872898
000060 7a 16 d1 bd 14 85 89 be 0a 8a 3d 3d 79 11 4b bc
       -0.10209365 -0.26859343 0.046274222 -0.0123943025
000070 4c 62 31 3e 12 70 07 bc f3 3e 0d be 86 b7 d8 bd
       0.17322654 -0.008266466 -0.13793544 -0.10581879
000080 91 b2 81 bd 61 2a 12 3d c4 7d 86 bd 5d 53 0c 3e
       -0.06332887 0.035684947 -0.06566957 0.13703676
000090 fd cc 59 3d c2 48 2a be ba 89 46 bd 99 52 ab 3e
       0.053174008 -0.16629317 -0.04847119 0.33461455
0000a0 0b 0c 2b 3e 2c 5b 78 bd 3d f8 b0 ba 94 83 12 be
       0.16703813 -0.060633823 -0.0013501715 -0.14308006
0000b0 0b 83 d6 bd 4b 1b fd 3d 7d 20 25 be 93 23 8a 3c
       -0.10474213 0.12358721 -0.16125675 0.016862666
0000c0 27 22 38 be d2 d4 b3 bd 7a 7d 00 be e9 05 da bd
       -0.17981778 -0.08780827 -0.12547866 -0.106456585
0000d0 87 3c 1d 3d 34 5e f4 bc 98 c5 11 be 88 34 40 3c
       0.0383878 -0.029830076 -0.14235532 0.011731274
0000e0 e9 f7 dd 3d 2c b4 4d 3e 7a a5 cf bd 90 2b 33 3d
       0.10838301 0.20088261 -0.10138984 0.043742716
0000f0 b0 12 e2 bd 0b e7 d8 3d 9f 72 61 3d 07 76 d7 bc
       -0.110387206 0.10590943 0.05504095 -0.026301397
000100 3c 65 bb bd 98 9e 57 bb 2e ff 9f bc 82 f9 7b 3d
       -0.09150168 -0.0032900926 -0.019530859 0.061517246
000110 79 c7 42 bd be 76 a0 3c 7c 94 4d bd fe 37 e0 bc
       -0.047553513 0.01958787 -0.050190434 -0.02737045
000120 8e 30 6e bb be 37 e7 bd e9 6e 3b bd 54 1e 9d 3d
       -0.0036344859 -0.11289929 -0.04576007 0.076718
000130 d6 2f d0 3d 03 af 3f 3d 81 fd f6 3d 42 a7 f9 3d
       0.10165374 0.046797764 0.12060071 0.12190105
000140 f9 94 1c be e3 85 b0 bd 13 eb 40 bd b1 9d 46 3d
       -0.15291204 -0.08619287 -0.047099184 0.04849023
000150 82 72 8f 3d 44 c2 29 bd 71 fb e2 3d c5 43 59 bd
       0.070042625 -0.04144503 0.11083115 -0.053043146
000160 23 b2 ce bd d6 e0 05 be 07 12 5b bd fb da bc 3d
       -0.10092571 -0.1307405 -0.05348399 0.09221455
000170 9d df 5b bd 96 27 0c bd 64 da 83 3d bc ba 9e bd
       -0.05368005 -0.03421744 0.06438139 -0.077504605
000180 2d 95 4c bd dd 91 cc 3d 45 e4 fc bc 86 43 6a bd
       -0.049946953 0.09988759 -0.030870566 -0.0571933
000190 43 08 72 bc 0e ee 0b bc 30 4f d0 3c dc 9c d5 3d
       -0.014772478 -0.008540643 0.025428385 0.10430309
0001a0 a2 dc 97 bd ed e9 e4 3d 78 78 26 be 3b d8 d9 3a
       -0.07415129 0.1117743 -0.16256893 0.0016620228
0001b0 2c d2 80 3c 43 1a 89 bd 88 32 77 3d 24 a0 00 be
       0.015725218 -0.06694462 0.060350925 -0.12561089
0001c0 1b 0a 1f b9 f1 52 9d 3d 37 6f 1a 3e b8 62 0f be
       -0.00015167186 0.076818354 0.15081488 -0.14002502
0001d0 42 c4 7a 3d e1 59 d5 3d a4 9d 0d be 84 e5 60 3d
       0.061222322 0.10417534 -0.13829666 0.054906383
0001e0 31 66 c0 bd 47 66 05 3e ca 82 22 be d0 33 93 3d
       -0.093944915 0.13027297 -0.15870205 0.07187617
0001f0 ea bc 69 3d 15 29 a7 3d b1 cc 52 3c 30 3b 3e bd
       0.057064928 0.08162133 0.012866185 -0.046443164
000200 53 ff df bc 77 ef d7 bd 58 bd 5e bd ab 0d 37 bc
       -0.027343428 -0.10543721 -0.05437979 -0.011172692
000210 19 7a 7a bd 5d 64 c4 3d 85 2c aa bd 4c 64 34 bd
       -0.061151598 0.09589455 -0.08309273 -0.044040963
000220 ea 85 e6 3a 1d 4d cc bd e4 0d 86 bb c9 1f 97 bd
       0.0017587517 -0.09975646 -0.0040910114 -0.073791094
000230 94 4a e5 bd e5 82 6a 3b 62 4f 0f 3d 6b 67 d9 3c
       -0.11195865 0.0035783586 0.034987815 0.026538571
000240 b7 09 0f 3e f8 b7 f1 3c 6d a6 87 bd 1b e7 76 3d
       0.1396855 0.029506668 -0.0662354 0.060278993
000250 5e 37 80 bd 98 7f cc bd 13 c7 a3 3c 69 06 83 3d
       -0.062605605 -0.09985274 0.019992387 0.06397707
000260 a7 54 91 bc fd ae 97 3d c7 4c af bc 30 dd 71 3b
       -0.01774056 0.07406423 -0.021398915 0.003690552
000270 b0 c3 ca bd d6 9c 5a 3c 12 de cf bd 65 ce b4 3c
       -0.09900606 0.013343057 -0.101497784 0.022071073
000280 66 ea 0e bd 02 a5 f0 3d 1d 5d 08 3d d7 8d 0d be
       -0.03489151 0.11750223 0.033291925 -0.13823639
000290 8b e1 eb bd 9a 49 5a bd ea d9 6a 3d f6 dc ce bd
       -0.11517628 -0.05329285 0.057336725 -0.10100739
0002a0 a9 de 88 bd 86 b3 00 3d 49 df b6 bd 14 82 70 bd
       -0.06683094 0.031421207 -0.08929307 -0.058717802
0002b0 20 98 0f 3e 76 33 8b bd 1f ec 2e bc e0 08 ae 3d
       0.14022875 -0.06796925 -0.010676413 0.084977865
0002c0 84 64 a6 3c 9b a1 aa 3d 07 63 05 be 53 bb ec 3d
       0.020311601 0.08331605 -0.13026057 0.11559167
0002d0 e4 bc e6 3c 5e e1 3d bd 11 0e 9c bd 22 e6 0b be
       0.028166242 -0.046357505 -0.076198705 -0.13662007
0002e0 d6 dd cb 3d 36 5f 16 bd 16 32 0f be b8 47 c9 3d
       0.09954421 -0.036711894 -0.1398395 0.098281324
0002f0 64 f9 aa 3d e4 33 6c 3d bb 77 f1 3d 60 00 df 3d
       0.08348349 0.057666674 0.11790415 0.108887434
000300 bd b9 07 3e e7 2b 17 3e d1 3d 9b 3d 5f cc 41 3d
       0.13254447 0.14762841 0.0758015 0.047314044
000310 dd 53 f5 bc bb 36 da 3c 0a 84 9e bd 28 90 6a 3d
       -0.029947216 0.026637426 -0.07740028 0.057266384
000320 9a 47 4e bc c2 97 26 bc bf 39 7f bd 52 85 7f bd
       -0.012590313 -0.010168018 -0.06231093 -0.062383004
000330 08 92 f0 3d 2b 41 a3 bd 90 b5 1c 3e e0 c0 b2 bd
       0.11746603 -0.07971414 0.15303636 -0.08728194
000340 0b 27 fd bd e7 5e 36 bc c1 ef 23 bc 8c 65 02 3e
       -0.123609625 -0.011131025 -0.010005892 0.1273405
000350 c3 2e 53 3c 49 f3 38 3d 6c 4d 2b bc a1 dc 77 3d
       0.012889567 0.04515389 -0.0104554705 0.060513142
000360 bf 1d de bd 06 23 35 bd 0e db 02 be a1 6e bc bd
       -0.10845517 -0.044222854 -0.12778875 -0.09200788
000370 b4 4c 75 3d a3 fd 1f 3c ed c0 09 bd 4c 6f 90 3b
       0.059887603 0.009765062 -0.033631254 0.004407799
000380 c2 be db bb 65 60 c9 3d 6c 00 02 3e 10 9f 0d 3e
       -0.0067060897 0.09832839 0.12695473 0.13830209
000390 e3 51 e6 3d 99 88 10 bd a7 86 14 bd a5 8c 12 3e
       0.112460874 -0.03528652 -0.036261227 0.14311464
0003a0 0b bc eb 3d af df 30 bd 11 07 03 be 5a 1c de b7
       0.11510476 -0.04318207 -0.12795664 -2.6477665e-05
0003b0 8a b5 cc bd ae fe 97 bc e0 01 31 3d 28 08 83 3c
       -0.09995563 -0.018554058 0.04321468 0.0159951
0003c0 dd 61 ca bd 75 12 a6 bd b8 3d ff 3d b3 e4 3c 3c
       -0.09881947 -0.08108989 0.12462944 0.0115291355
0003d0 96 f5 1b be fd 2f da bd 49 c1 72 bc 9b 60 f2 3c
       -0.15230402 -0.10653684 -0.014816591 0.02958708
0003e0 8f 1e b6 bd 67 fc 0e 3c e1 cb ad 3b 06 d9 63 3d
       -0.08892547 0.00872717 0.0053038453 0.05562689
0003f0 de d5 6f bd 7d 4a 24 bd e8 29 e2 bd 2e 27 a7 3c
       -0.05855357 -0.0401101 -0.11043149 0.020404425

bias f4 [64]
000000 b1 32 ab bd ae 3b 85 3c 48 b6 c2 3d 36 83 df 3d
       -0.08359278 0.016263809 0.09507424 0.109136984
000010 61 db f0 3c 6f 0d 3b 3e dc 82 6f ba d5 ac 73 3e
       0.029401483 0.18266843 -0.0009136626 0.23796399
000020 33 e4 46 be 29 62 79 bd b2 12 ec 3d c9 e4 ef bd
       -0.19422989 -0.06088463 0.11527003 -0.11713559
000030 1c 66 f2 3d b4 c3 3a 3c ce 03 7b 3d 59 b0 8b 3c
       0.11835882 0.011399198 0.061282925 0.017051863
000040 17 f5 45 bc c2 25 c0 3d 39 3a cd bd 2d b2 93 3d
       -0.01208236 0.09382202 -0.10020871 0.07211719
000050 f7 8c 38 bd ca db ce bd 4d 2b 8c bd 75 1f 1a bc
       -0.04505631 -0.10100515 -0.068441965 -0.009406914
000060 7a 13 ba 3d 7f 43 cd bd 19 cf e9 3c 30 90 81 3d
       0.09085746 -0.100226395 0.028541135 0.0632633
000070 e2 ce f1 bd e6 d8 03 3d 92 2a 96 bd 10 3f ec bd
       -0.11807038 0.032189272 -0.073323384 -0.11535466
000080 4e 9a 10 bd 25 8d e1 3d 65 3f c4 bd dc d7 94 3d
       -0.035303406 0.11013249 -0.09582404 0.072677344
000090 90 80 4c bd d9 a2 67 3c 3f 34 32 3c 90 d6 d2 bd
       -0.049927294 0.014137947 0.010876714 -0.10294831
0000a0 bf a2 3b bd 40 2b f2 3c f8 ee 06 3e c0 44 52 bd
       -0.045809504 0.029561639 0.13177097 -0.051335096
0000b0 f3 7b 7b 3d 8b 10 b3 bd 53 84 dd bd 42 cd 62 3d
       0.061397504 -0.0874339 -0.108162545 0.05537153
0000c0 a4 27 b2 b9 9c 73 9c 3c 67 06 b7 3d 09 25 bf bc
       -0.0003398034 0.019098096 0.08936768 -0.02333309
0000d0 d9 ae d9 3c fa 1b a5 3e b1 65 23 3e 43 e6 d6 3d
       0.026572632 0.32247907 0.15956761 0.10493138
0000e0 30 43 86 3d da c6 91 3d fa db de 3d c6 e5 09 3d
       0.06555784 0.07118006 0.10881801 0.033666395
0000f0 81 7e 5e 3d 5e 0c 46 3d 93 b6 8d 3d 41 de 3b 3c
       0.054319862 0.048351638 0.06919589 0.011466564

weight f4 [1, 64]
000000 bf 69 89 3d ab 71 0d 3c ea 3f 18 bc e9 41 d8 3c
       0.067096226 0.008633058 -0.009292582 0.026398616
000010 d0 e1 c1 39 3b 64 3d 3e 26 1f 5e bd 08 ac ca 3e
       0.00036980072 0.18495266 -0.054228924 0.39584374
000020 d5 04 91 3d ad c4 fa 39 35 ba 3a bc 79 85 c3 bd
       0.07081 0.0004783025 -0.011396934 -0.09546942
000030 d1 f4 e9 3b 17 5a ee bc cb da 92 3d c4 08 81 bd
       0.00713978 -0.029095693 0.07170638 -0.063005
000040 f5 b1 a2 3d 03 5c 10 3d 6f 09 9a 3d 73 cb 30 bc
       0.07944099 0.035244 0.075213306 -0.010790694
000050 bf fe 15 bd 6b 97 cd 3d 47 6c f8 bd ad 87 60 bc
       -0.036619898 0.10038646 -0.12130027 -0.013704223
000060 20 8c 31 bd 66 aa 89 3d 04 8c 0d bc 04 42 f8 bb
       -0.043346524 0.06721954 -0.008639339 -0.007576229
000070 01 c9 ba 3d 7d e5 2c 3c 31 8c 58 bd 10 89 40 3e
       0.0912037 0.010552761 -0.052868072 0.18802285
000080 b4 ce 02 bc 02 fa bb bc 43 81 22 3d f3 09 d7 bd
       -0.007983852 -0.022946361 0.039674055 -0.104999445
000090 09 8a bd 3d ce 61 a3 3d cf dd 54 3b 85 5d 13 bb
       0.09254844 0.07977639 0.003248084 -0.0022486162
0000a0 ad 72 cd 3c 11 1d 57 be eb e3 2f 3e 38 5c ad 3d
       0.025079096 -0.21007182 0.17176788 0.08464855
0000b0 b1 cf bc bb 37 c7 4f 3e 18 b6 e3 3d d3 6e 7b bd
       -0.0057620634 0.20290838 0.11118716 -0.061384987
0000c0 7f c5 e9 3b 7c 75 aa bd 92 46 46 bd c5 1a 8f 3c
       0.007134139 -0.083231896 -0.048407145 0.01746882
0000d0 da ea 6e bd 51 a4 1a be c1 66 72 bd 82 38 0a be
       -0.05832944 -0.15101744 -0.059180025 -0.13498119
0000e0 dd f3 5e bd 17 74 a3 bd b8 bb 85 bd e0 d0 ad 3d
       -0.054431785 -0.07981127 -0.06529945 0.08487105
0000f0 4f 6e d5 bd c8 b9 03 3e 9f 87 ac bd 48 f2 bd 3d
       -0.1042143 0.12863839 -0.08424305 0.09274727
