pretrained/grasp/model.pt (torch_old, 76680 bytes, 16 tensors)

log_std f4 [3]
0	0xbf236757	-0.6382956
1	0xbf0ca2a8	-0.54935694
2	0xbf28ed74	-0.65987325

weight f4 [64, 6]
0	0x3bf3ec7a	0.0074439617
1	0x3ec61c5f	0.3869352
2	0xbec5ee0e	-0.38658184
3	0xbea60854	-0.3242823
4	0xbd9a92aa	-0.07547505
5	0x3e0b3244	0.13593394
6	0xbd7f6d3e	-0.06236004
7	0x3eea2cf8	0.45737433
8	0x3c5ef37a	0.013607854
9	0x3d1e69a1	0.038674954
10	0xbc8516f2	-0.016246293
11	0xbdf59270	-0.11990821
12	0xbee39e38	-0.4445665
13	0xbecf6841	-0.40509227
14	0xbe06b136	-0.13153538
15	0x3d0d5431	0.03450412
16	0x3d7c9cc5	0.061672945
17	0x3e758f34	0.23980409
18	0xbe9b587a	-0.3034094
19	0xbe89b69f	-0.2689714
20	0x3df6acf6	0.120447084
21	0x3eb89611	0.36051992
22	0xbe08ee5d	-0.13372178
23	0x3ebc2751	0.36748746
24	0xbd5cbe42	-0.05389238
25	0x3e5dac3e	0.21647736
26	0x3e927ecf	0.28612372
27	0xbec6f354	-0.3885752
28	0xbe54f6d2	-0.2079728
29	0xbda6562a	-0.08121903
30	0xbe503ddc	-0.20336097
31	0x3eef1f6c	0.4670366
32	0xbe81da08	-0.25361657
33	0xbe4c1ba8	-0.19932425
34	0xbe9dd704	-0.30828106
35	0xbed8fe5e	-0.42381567
36	0xbe9ddada	-0.30831033
37	0x3ee3898d	0.4444088
38	0x3e3a8afd	0.18217082
39	0x3e5131ac	0.20429105
40	0xbd5adf48	-0.053435594
41	0xbe603449	-0.21894945
42	0x3e149939	0.14511575
43	0xbeba7d38	-0.3642366
44	0xbea01df6	-0.31272858
45	0xbe54089b	-0.20706408
46	0x3e9f2d5b	0.3108929
47	0x3e92d81a	0.28680497
48	0xbe51a468	-0.20472872
49	0xbe1e6078	-0.15466487
50	0x3e7bfae1	0.24607421
51	0x3eedc615	0.46440187
52	0x3d866472	0.06562127
53	0x3dba60be	0.09100483
54	0x3eb42791	0.35186437
55	0xbea42bfc	-0.32064807
56	0x3d65457e	0.055974476
57	0xbea642f2	-0.3247295
58	0xbe597749	-0.2123691
59	0xbe6cb746	-0.23116788
60	0x3e43c42d	0.19117804
61	0x3e84b23a	0.25917226
62	0xbe727274	-0.23676473
63	0x3e0babf6	0.13639817
64	0x3e6f274e	0.23354837
65	0xbd9c60ad	-0.07635627
66	0xbd65fc4d	-0.056148816
67	0x3db5a58d	0.08869467
68	0x3e90f095	0.2830855
69	0x3ec50e83	0.38487634
70	0xbece4eb9	-0.40294436
71	0xbe173e98	-0.14769971
72	0x3e1d241b	0.15345804
73	0x3e1ce1df	0.15320538
74	0x3edd666d	0.43242207
75	0x3ead3d43	0.338358
76	0x3d95c4e4	0.073129445
77	0xbed8f9be	-0.42378038
78	0x3d156d42	0.03648115
79	0xbee329d2	-0.44367844
80	0xbea33842	-0.3187886
81	0x3ec17284	0.3778268
82	0x3e8ae60c	0.27128637
83	0xbee267db	-0.4421986
84	0x3e0adea4	0.13561493
85	0x3b03b722	0.002009817
86	0xbe0a6efa	-0.13518897
87	0xbe25617f	-0.16150473
88	0x3e55f489	0.20894064
89	0xbe291ba1	-0.16514446
90	0x3d952cbb	0.07283922
91	0x3e9cbec1	0.30614284
92	0x3e997cf3	0.2997814
93	0x3e131c48	0.14366257
94	0xbed8dcf0	-0.42356062
95	0xbe7fdcb3	-0.24986534
96	0x3e570b19	0.21000327
97	0x3e0eb64d	0.1393673
98	0xbe9bcf24	-0.30431473
99	0xbe82bd24	-0.25534928
100	0x3efd32d6	0.49452847
101	0x3ea00089	0.31250408
102	0xbe48e69f	-0.19619225
103	0xbe8a8eec	-0.27062166
104	0xbeb73e37	-0.35789654
105	0x3bee6659	0.0072753844
106	0xbebaf98b	-0.3651851
107	0xbeba7496	-0.36417073
108	0xbd15dd51	-0.036588017
109	0x3e0889c5	0.13333805
110	0xbe660859	-0.22464122
111	0x3e846dfe	0.25865167
112	0xbe9c95ee	-0.30583137
113	0x3edf6921	0.43634894
114	0x3e872e7c	0.26402652
115	0xbefc30b2	-0.49255902
116	0xbd47d7b1	-0.048789684
117	0x3c0d2fed	0.008617383
118	0x3d20c578	0.03925082
119	0x3dc27221	0.094944246
120	0x3dd29805	0.10282902
121	0xbcbb4022	-0.02285773
122	0xbe21092a	-0.15726152
123	0x3e3322bb	0.17493717
124	0xbef0a0d2	-0.46997696
125	0xbe901c2d	-0.28146496
126	0x39aa4fd9	0.00032484418
127	0xbed0ebf5	-0.4080502
128	0xbe4319bb	-0.19052784
129	0xbe80f536	-0.2518708
130	0xbde43ea2	-0.11144759
131	0x3e130984	0.14359099
132	0xbeabb3f7	-0.3353574
133	0xbe0434c8	-0.1291076
134	0x3ebc615f	0.36793038
135	0xbd78c4a0	-0.06073439
136	0xbd4b7fa2	-0.049682267
137	0xbdaa0325	-0.08301381
138	0x3e0c4d3d	0.13701339
139	0x3dccaeee	0.09994303
140	0x3ed69b13	0.41915187
141	0x3e8b79d8	0.27241397
142	0x3ed55bb5	0.4167153
143	0xbcfe6356	-0.031053226
144	0xbec2df42	-0.38060957
145	0xbc11fb10	-0.008909956
146	0x3e6056c4	0.21908098
147	0xbb5ae504	-0.0033400664
148	0xbe374934	-0.17899019
149	0xbe7843b0	-0.2424457
150	0xbed02068	-0.40649724
151	0xbf03e33b	-0.515186
152	0xbce02e5f	-0.027365861
153	0x3e6d8b31	0.23197629
154	0x3e32ea9f	0.17472313
155	0xbee15621	-0.44011024
156	0x3eab674e	0.33477253
157	0xbee16aa0	-0.4402666
158	0xbdbccdd1	-0.09218944
159	0xbe2bc353	-0.16773729
160	0xbc940c8d	-0.01807239
161	0xbdc7abab	-0.0974954
162	0xbec2ba0f	-0.38032576
163	0xbedb1e3a	-0.427965
164	0xbdf61212	-0.120151654
165	0x3d820e59	0.06350393
166	0xbe989e2f	-0.29808185
167	0x3e5c42eb	0.21509902
168	0xbec48fd1	-0.38390973
169	0x3cc46511	0.023973973
170	0x3eb3f542	0.35148054
171	0xbe321ec2	-0.17394546
172	0x3ed048e0	0.406806
173	0x3e484934	0.19559175
174	0xbec1575f	-0.3776197
175	0x3ed003ee	0.40627998
176	0xbd3da5de	-0.04630076
177	0xbe496724	-0.19668251
178	0x3ea48e9f	0.3214006
179	0xbebbf7af	-0.36712405
180	0x3de608a2	0.11232115
181	0xbe3c4de8	-0.18389094
182	0x3e85e274	0.26149333
183	0x3e0d8834	0.13821489
184	0x3e6da6e8	0.23208201
185	0x3e41cc71	0.18925644
186	0xbdd7f76a	-0.10545237
187	0xbe4cb64b	-0.19991414
188	0xbec1fa96	-0.37886494
189	0x3e8acf90	0.27111483
190	0x3e7d83da	0.24757329
191	0x3ea44add	0.32088366
192	0xbe9181a7	-0.2841923
193	0x3e2b1e91	0.16710879
194	0xbeb544f7	-0.35404179
195	0xbe6cc9e6	-0.23123893
196	0xbe336bee	-0.1752164
197	0x3e358385	0.17725952
198	0xbe8c2f1a	-0.27379686
199	0xbd78ea59	-0.060770366
200	0x3cf0cf66	0.02939577
201	0x3e8b176c	0.27166307
202	0xbeceaaf2	-0.40364796
203	0xbea63cd8	-0.32468295
204	0xbe9d74d6	-0.307532
205	0x3e8c0d50	0.27353907
206	0xbdf96717	-0.12177866
207	0x3eb72d5e	0.357768
208	0x3d9674e6	0.07346515
209	0x3d6b005d	0.057373393
210	0x3d37b433	0.044849586
211	0xbdfdfcc1	-0.124017246
212	0x3db12dfb	0.08651348
213	0xbe060027	-0.13085996
214	0x3d69a17a	0.05703876
215	0x3c827044	0.015922673
216	0xbe97976d	-0.29607716
217	0xbdb14c53	-0.08657136
218	0x3e8c3694	0.2738539
219	0xbea566d9	-0.3230503
220	0x3c922c93	0.01784352
221	0x3eedec49	0.46469334
222	0x3e18b1ba	0.14911547
223	0x3c55a8bd	0.013040719
224	0xbebaa13b	-0.36451134
225	0x3e4a797f	0.1977291
226	0xbebca756	-0.36846417
227	0xbe050123	-0.12988715
228	0xbe4d9cdd	-0.2007937
229	0xbd9ac655	-0.0755736
230	0x3a666acd	0.0008789718
231	0x3eb6428e	0.35597652
232	0xbcf57687	-0.029963745
233	0x3ecc18e6	0.39862746
234	0x3e922725	0.2854549
235	0xbea073bb	-0.31338295
236	0x3e35620a	0.1771318
237	0xbe9435fa	-0.2894743
238	0xbdd6e872	-0.10493554
239	0x3e2c5333	0.16828613
240	0x3dc917d0	0.09818995
241	0x3eaf50b6	0.34241265
242	0xbdaeadbc	-0.08529231
243	0xbc9ac521	-0.018892827
244	0x3e41fec6	0.18944845
245	0xbef32e03	-0.47496042
246	0x3ec5e25a	0.38649255
247	0xbecfba7a	-0.40571958
248	0xbca465dc	-0.020068102
249	0xbd716ca7	-0.05894151
250	0xbe1d2925	-0.15347727
251	0x3d84ea39	0.06489987
252	0x3eba5a31	0.36396936
253	0x3cde3a89	0.027127521
254	0xbe88b286	-0.26698703
255	0xbe271d73	-0.16319828

bias f4 [64]
0	0x3e0c813f	0.13721178
1	0x3eb7185a	0.35760766
2	0x3e5c1684	0.21492964
3	0x3e82d6b8	0.25554442
4	0xbe02435d	-0.1272101
5	0x3e5252e0	0.20539427
6	0x3d801b23	0.06255176
7	0xbdb9adb4	-0.09066334
8	0xbe5242de	-0.2053332
9	0xbe6d231a	-0.23157921
10	0xbea37504	-0.31925213
11	0x3e8c1cbf	0.27365682
12	0x3e825049	0.25451878
13	0xbd58b380	-0.05290556
14	0xbe665aa1	-0.2249551
15	0x3e9ff8af	0.31244418
16	0x3e7448b8	0.23855865
17	0x3d1c907a	0.03822372
18	0xbe3edfba	-0.18640032
19	0x3ea61f57	0.32445785
20	0x3e1b8b00	0.15189743
21	0xbe82b2e5	-0.2552711
22	0x3ec1eb9c	0.37875068
23	0x3e94871d	0.29009333
24	0xbe0a28d2	-0.13492134
25	0x3e6f7c1b	0.23387186
26	0xbe741a2a	-0.23838106
27	0xbcf411a4	-0.029793568
28	0x3eb27e24	0.34861863
29	0x3d09b172	0.03361649
30	0xbe93124f	-0.28724906
31	0xbdfdb00c	-0.12387094
32	0xbdb35bc2	-0.08757736
33	0xbd9af301	-0.075658806
34	0x3d2ed9f6	0.042688332
35	0x3eb1a303	0.3469468
36	0x3d521201	0.0512867
37	0xbe7f1bdb	-0.2491297
38	0x3b1a8791	0.002357934
39	0x3e4a841f	0.19776963
40	0x3e3b9f7c	0.18322557
41	0xbebe3253	-0.3714777
42	0xbdb1e244	-0.08685735
43	0xbe866e71	-0.26256135
44	0xbe39c09f	-0.18139885
45	0x3e1979f0	0.14987922
46	0xbe8e10bc	-0.27747142
47	0x3e1750db	0.14776938
48	0x3ea6a6b6	0.32549065
49	0x3ca42e8f	0.020041732
50	0xbe7e71fd	-0.2484817
51	0xbe114e49	-0.1419002
52	0x3daf7928	0.085680306
53	0xbe9fcfe3	-0.31213292
54	0x3e25d17a	0.1619319
55	0xbebdf430	-0.37100363
56	0xbec5864d	-0.38579026
57	0xbecc1efb	-0.39867386
58	0xbd8766e7	-0.06611424
59	0x3e80d8e5	0.25165477
60	0xbeb79e9f	-0.35863206
61	0x3e9a0cbe	0.30087847
62	0xbe088b1c	-0.13334316
63	0x3dbfb333	0.093603514

weight f4 [64, 64]
0	0x3dc0d6dd	0.09415982
1	0xbdcb7bc2	-0.09935714
2	0x3bcb25c6	0.0061995713
3	0x3d3467e0	0.044044375
4	0x3df210fa	0.11819644
5	0x3d224371	0.0396151
6	0xbe13b582	-0.14424708
7	0x3e150abf	0.1455488
8	0xbdafafaa	-0.08578427
9	0x3d85dfa3	0.06536796
10	0xbd84376a	-0.06455882
11	0xbd24b657	-0.040212955
12	0xbdd9820f	-0.1062051
13	0xbdca4d81	-0.09878064
14	0x3cfdb3ab	0.030969461
15	0xbdb0f2cf	-0.08640062
16	0x3dababc4	0.08382371
17	0xbb7fe41a	-0.0039045871
18	0x3c0b6d59	0.008509957
19	0xbd9596a6	-0.073041245
20	0xbdc2d4e2	-0.095132604
21	0xbd6124f3	-0.05496688
22	0x3c4b8088	0.012420781
23	0x3e121f54	0.14269763
24	0x3d071939	0.03298304
25	0xbe666073	-0.2249773
26	0x3d589b12	0.05288226
27	0xbe7211f5	-0.23639663
28	0xbe147a7c	-0.14499849
29	0x3d2b5faa	0.04183928
30	0xbd8604b3	-0.06543865
31	0x3c57dee1	0.013175697
32	0xbdeb967c	-0.11503312
33	0xbe0d15c6	-0.13777837
34	0xbe1238f6	-0.14279541
35	0x3d94375f	0.07237124
36	0xbd5f98ed	-0.0545892
37	0x3dcee563	0.10102346
38	0x3d63204f	0.055450734
39	0x3dc3845e	0.095467314
40	0x3d86e71f	0.065870516
41	0xbcdedeb1	-0.027205797
42	0x3d81cdeb	0.06338104
43	0xbd8a5ba5	-0.06755761
44	0x3e280be0	0.1641078
45	0xbe7c9180	-0.24664879
46	0x3e125bd6	0.14292845
47	0xbd53bfd7	-0.051696625
48	0xbde291b8	-0.1106295
49	0xbdc04480	-0.09388065
50	0x3db7924c	0.08963451
51	0x3e0bb74a	0.13644138
52	0xbdeac704	-0.114637405
53	0x3dda25f0	0.10651767
54	0x3df78deb	0.120876156
55	0x3c91b57c	0.017786734
56	0x3e3196ff	0.17342757
57	0x3d8bcb1b	0.06825849
58	0xbe0799ef	-0.13242315
59	0x3d7726c4	0.060339704
60	0xbdee11f2	-0.116245165
61	0x3d551da9	0.05203024
62	0xbd814874	-0.063126475
63	0x3e0cb87d	0.13742252
64	0x3e0559a1	0.13022472
65	0xbc8aeff3	-0.01696012
66	0xbc3d9c14	-0.011572856
67	0x3cbcaccc	0.023031615
68	0xbcf7d536	-0.030253034
69	0x3e3f6db3	0.1869419
70	0x3e812aff	0.25228116
71	0xbe425a99	-0.18979873
72	0xbc2e6eda	-0.010646546
73	0xbd6208a0	-0.055184007
74	0x3d66b664	0.056326285
75	0xbdbc7c25	-0.09203366
76	0xbd8c566b	-0.068524204
77	0xbe6e6757	-0.23281609
78	0x3df731cd	0.120700456
79	0xbcaaf50a	-0.020868797
80	0xbbd2a4da	-0.0064283432
81	0xbd5cc199	-0.053895567
82	0x3dcbb726	0.09947042
83	0x3dacae64	0.084317
84	0xbdda5244	-0.10660222
85	0xbde9d844	-0.114182025
86	0xbda3103a	-0.07962079
87	0xbba4ecac	-0.0050330963
88	0xbc25e8ac	-0.010126274
89	0xbe24cfd3	-0.16094904
90	0xbddc488e	-0.10756026
91	0xbc840234	-0.016114332
92	0xbcdb2d1d	-0.02675491
93	0x3dae6014	0.08514419
94	0xbd99f711	-0.07517827
95	0xbe728bd9	-0.2368616
96	0x3d69830e	0.05700975
97	0x3e050dea	0.12993589
98	0xbb3062f9	-0.002691446
99	0xbb7de857	-0.0038743222
100	0xbd33abb8	-0.043864936
101	0x3dd9ef78	0.10641378
102	0xbe13b4a0	-0.14424372
103	0xbe313808	-0.1730653
104	0x3e5332df	0.20624875
105	0xbe127732	-0.14303282
106	0xbd48b8bb	-0.049004298
107	0xbdde04d9	-0.10840768
108	0xbe8c6cc6	-0.27426738
109	0xbd479724	-0.048728123
110	0xbca30c9a	-0.01990347
111	0x3d9e9961	0.077440985
112	0xbe0641a2	-0.13110974
113	0xbdaf9340	-0.085730076
114	0xbcd5a659	-0.026080297
115	0x3e02b6cd	0.12765045
116	0xbdefe127	-0.11712866
117	0x3dfe9cec	0.12432274
118	0xbc160da8	-0.009158529
119	0xbd279609	-0.04091457
120	0x3e13d405	0.14436348
121	0xbbd60599	-0.006531429
122	0x3e5cf254	0.21576816
123	0x3da711d6	0.08157699
124	0xbde75861	-0.11296154
125	0xbdf7de76	-0.12102978
126	0xbb45ef7d	-0.003020256
127	0x3df24960	0.118304014
128	0xbe7e1181	-0.24811365
129	0xbe0821d9	-0.13294162
130	0x3e1a224e	0.15052149
131	0x3e2fe15f	0.17175816
132	0xbd9ade42	-0.075619236
133	0xbe7a1f9f	-0.24426125
134	0xbe5f9245	-0.21833141
135	0x3e02e78d	0.12783642
136	0x3dcc69b7	0.09981101
137	0xbd7d40f0	-0.061829507
138	0xbc9a9b2a	-0.018872816
139	0x3d94388c	0.07237348
140	0x3dd6b7da	0.10484286
141	0x3e98531a	0.297509
142	0xbd2e3c4a	-0.042537965
143	0xbdddfc17	-0.10839098
144	0xbe029485	-0.12751968
145	0x3e167042	0.1469126
146	0x3df37980	0.11888409
147	0x3dc12613	0.0943109
148	0xbd9bae82	-0.07601644
149	0x3df30a9e	0.118672594
150	0x3e10f20f	0.14154838
151	0x3df64511	0.12024892
152	0xbde8391e	-0.11339019
153	0x3e126e18	0.1429981
154	0xbd5a7495	-0.053333838
155	0x3e5e148f	0.2168753
156	0xbd842b0b	-0.06453522
157	0xbdeb064f	-0.11475813
158	0x3dbbd538	0.091715276
159	0x3deba4bf	0.11506032
160	0xbdc41041	-0.09573413
161	0x3c4d5fe5	0.01253507
162	0xbd0ce808	-0.03440097
163	0xbda4b315	-0.0804197
164	0x3dbdcdeb	0.09267791
165	0xbd294075	-0.041321237
166	0x3dc991c8	0.09842259
167	0x3e169137	0.14703833
168	0xbd2a0431	-0.041507903
169	0x3d5c490c	0.0537806
170	0x3e0ce405	0.13758858
171	0x3e1b3948	0.1515857
172	0x3deb4990	0.1148864
173	0x3e76edac	0.24114102
174	0x3dbab0da	0.09115763
175	0xbe0f4873	-0.13992481
176	0xbc13fa03	-0.009031775
177	0xbda86db6	-0.08224051
178	0x3dc095e9	0.09403593
179	0xbdbe0783	-0.092787765
180	0xbd80b9e0	-0.06285453
181	0xbcfe8e79	-0.031073796
182	0x3d1c0efc	0.038100228
183	0x3d9a47fa	0.0753326
184	0xbd1af489	-0.037830863
185	0x3bea7f8d	0.0071563185
186	0x3dc60949	0.0966974
187	0xbcd442de	-0.025910791
188	0x3d718544	0.058964983
189	0xbd9ac212	-0.07556547
190	0xbdd7e959	-0.105425544
191	0x3c83ed2c	0.016104303
192	0xbe13f5bb	-0.14449207
193	0x3b07fe45	0.0020750922
194	0x3ba1c540	0.004936844
195	0xbcb28479	-0.021791684
196	0xbd5cf421	-0.053943757
197	0x3e6db63b	0.23214047
198	0x3c110528	0.008851327
199	0x3c56b97f	0.013105749
200	0xbdc195fc	-0.094524354
201	0x3bed4e79	0.0072420207
202	0x3da03093	0.07821765
203	0xbd6e6fe8	-0.05821219
204	0x3dd8f11f	0.10592865
205	0x3d7bddd6	0.061490856
206	0xbd9adea6	-0.07561998
207	0xbd6d9131	-0.057999793
208	0xbcfb591b	-0.030682137
209	0x3e4f6f4b	0.20257299
210	0xbe55c833	-0.20877151
211	0x3cae6fab	0.021293482
212	0xbca60a16	-0.020268481
213	0xbc1e912c	-0.009678166
214	0x3dbbb3aa	0.091651276
215	0xbdf73332	-0.120703116
216	0x3d6a3268	0.057176977
217	0x3ea49ba9	0.3215001
218	0x3c46454d	0.0121014835
219	0x3df2e361	0.11859775
220	0xbda1383e	-0.078720555
221	0x3e0fff2f	0.14062189
222	0xbe05a597	-0.13051449
223	0xbe4b6025	-0.19860895
224	0xbc1191b6	-0.008884838
225	0x3df49df3	0.11944189
226	0x3ca3ad06	0.019979965
227	0x3d9a5f55	0.075377144
228	0xbdbe247d	-0.09284303
229	0x3d1ce020	0.03829968
230	0x3d0072fd	0.03135966
231	0xbd82d2b6	-0.06387846
232	0x3e2d37ef	0.16915868
233	0xbd8b7b87	-0.0681067
234	0xbda6cb68	-0.081442654
235	0xbd2d3f54	-0.042296723
236	0xbd8b1306	-0.06790738
237	0x3e91c120	0.28467655
238	0x3cf55291	0.029946597
239	0xbe05f8e7	-0.1308323
240	0x3d3c6395	0.045993406
241	0x3d9ee525	0.077585496
242	0x3db39528	0.08768684
243	0xbd4c3f79	-0.04986522
244	0x3d8239f5	0.06358711
245	0x3e06a6ea	0.1314961
246	0xba09b62b	-0.00052532804
247	0xbdb99668	-0.09061891
248	0x3dd3ea6f	0.10347449
249	0xbe69596b	-0.22788016
250	0xbdad69da	-0.08467455
251	0xbb96e3e5	-0.004604804
252	0xbd914f06	-0.07095151
253	0x3c6153b7	0.013752869
254	0xbdfabdca	-0.12243231
255	0xbd0f73b6	-0.03502246

bias f4 [64]
0	0xbdc623ad	-0.09674773
1	0x3d6657da	0.056236126
2	0xbd9f20e1	-0.07769943
3	0xbd90c6b6	-0.07069151
4	0x3d11330f	0.035449084
5	0x3d1870ad	0.03721683
6	0x3dc788c3	0.09742882
7	0x3be597d5	0.007006625
8	0xbd5976d6	-0.053091846
9	0xbd4dbea1	-0.050230626
10	0x3c27b129	0.010235109
11	0xbdd5ee49	-0.1044584
12	0xbdda4bd2	-0.10658993
13	0xbd7de813	-0.0619889
14	0xbbd4f1cb	-0.0064985505
15	0xbd84eef2	-0.06490888
16	0xbd8b6aba	-0.06807466
17	0x3dcb1acd	0.09917221
18	0x3dc211c9	0.094760485
19	0xbd51791f	-0.0511409
20	0xbdbeba83	-0.09312918
21	0xbd411d18	-0.047146887
22	0x3d28f542	0.04124952
23	0x3d7116f0	0.058859766
24	0xbd0eb4bf	-0.03484034
25	0xbde0f830	-0.10984838
26	0xbd549309	-0.051898036
27	0xbc65ca2a	-0.01402525
28	0x3d57385c	0.052543983
29	0xbd830fac	-0.063994735
30	0x3d931fe2	0.071838155
31	0x3b5d4c4f	0.0033767407
32	0xbc658253	-0.0140081225
33	0xbdca47b3	-0.09876957
34	0x3dc151c6	0.09439425
35	0xbc92cef4	-0.017920949
36	0x3d90d767	0.07072335
37	0xbd41d630	-0.047323406
38	0xbded2180	-0.11578655
39	0xbd972752	-0.07380547
40	0xbd79629a	-0.06088505
41	0xbd6329b3	-0.05545969
42	0xbc334203	-0.010941031
43	0x3df246c5	0.118299045
44	0xbdfaac36	-0.12239878
45	0x3d5da861	0.054115657
46	0x3de251c0	0.11050749
47	0xbc865ac5	-0.016400704
48	0xbd2be3a3	-0.04196514
49	0xbab4a214	-0.0013781213
50	0x3cc49c8b	0.024000427
51	0x3d7c78c5	0.061638612
52	0xbd521056	-0.05128511
53	0xbcd6cce7	-0.026220752
54	0xbd75d125	-0.06001391
55	0xbdfdb683	-0.12388327
56	0x3d306ce7	0.043072607
57	0xbd8b4de0	-0.06801963
58	0xbd8ab230	-0.06772268
59	0xbb6fbffe	-0.0036582942
60	0x3dd9cde3	0.10634973
61	0x3daf9ec6	0.085752055
62	0xbda59bc2	-0.08086349
63	0x3dee7123	0.11642673

weight f4 [64, 64]
0	0x3e342edc	0.17596
1	0x3e0fce65	0.14043577
2	0xbd222f8b	-0.03959612
3	0xbd62b88a	-0.05535177
4	0x3d9f3465	0.07773665
5	0xbde7091c	-0.11281034
6	0xbd0088d5	-0.031380493
7	0x3b7a8440	0.00382258
8	0xbea43929	-0.3207486
9	0xbe745f74	-0.23864537
10	0x3b99ece5	0.0046974295
11	0x3d38be6e	0.045103483
12	0x3df1fe3e	0.11816071
13	0x3da506c5	0.08057932
14	0xbe222173	-0.15833072
15	0x3d4bded6	0.04977306
16	0x3db39464	0.08768538
17	0xbafe097d	-0.001938149
18	0xbd819437	-0.06327098
19	0xbd56fb62	-0.05248583
20	0xbe3f879f	-0.18704079
21	0x3c6c9ca8	0.014441647
22	0x3e1d1e24	0.15343529
23	0x3dd7c3fc	0.10535428
24	0xbc61f12d	-0.013790411
25	0x3dc14eb8	0.094388425
26	0x3e219629	0.15779938
27	0xbdd7ddb5	-0.10540334
28	0x3dbf1c48	0.09331566
29	0x3da3f791	0.08006204
30	0x3de1c2bd	0.110234715
31	0x3c72ad9f	0.014811902
32	0x3d81a2e9	0.06329901
33	0x3c327573	0.01089226
34	0x3d952382	0.07282163
35	0xbe09a461	-0.13441612
36	0x3c67e4a6	0.014153635
37	0xbe0f014d	-0.1396534
38	0xbb5a313d	-0.0033293508
39	0xbe2beb2a	-0.16788927
40	0x3ded5631	0.11588705
41	0x3e5d46c7	0.2160903
42	0x3d2537b5	0.04033633
43	0xbd2f27b1	-0.042762462
44	0x3cf4d0f2	0.02988479
45	0xbd439823	-0.04775251
46	0x3cb0a6a7	0.021563841
47	0x3d8ca6ab	0.06867727
48	0xbe21b304	-0.15790945
49	0xbe56afb2	-0.2096546
50	0x3be064c4	0.0068479497
51	0x3e5745a1	0.21022655
52	0xbd573301	-0.052538875
53	0x3dfdf453	0.12400117
54	0xbe8b163c	-0.271654
55	0xbda62464	-0.0811241
56	0xbe067b99	-0.13133086
57	0xbb8524f3	-0.0040632426
58	0xbd9f0bd1	-0.07765926
59	0xbdc06178	-0.09393591
60	0x3c8b40fa	0.016998757
61	0x3cc77a83	0.02435041
62	0xbe166525	-0.14687021
63	0xbe0b97bd	-0.13632102
64	0x3d8a2d7c	0.06746957
65	0x386f7200	5.708821e-05
66	0xbe818386	-0.25295657
67	0x3ddb94e4	0.10721758
68	0x3ddba196	0.107241794
69	0x3d4abfa9	0.049499188
70	0xbd5c806b	-0.053833406
71	0x3d7c981b	0.061668497
72	0x3d0949d5	0.033517677
73	0xbd5c3d00	-0.05376911
74	0xbc9285fc	-0.017886154
75	0xbe08b634	-0.13350755
76	0x3d997701	0.07493401
77	0xbd9c0515	-0.07618157
78	0xbd6ac6eb	-0.05731861
79	0x3e63d617	0.22249638
80	0xbd1ef9b8	-0.03881237
81	0xbd0efc39	-0.034908507
82	0x3e0061f4	0.12537366
83	0x3da62d84	0.0811415
84	0x3d921b9c	0.07134172
85	0x3d83c3c8	0.06433827
86	0x3d88e7a0	0.06684804
87	0xbe12f4a5	-0.14351137
88	0xbd82f9a7	-0.06395274
89	0xbe9372af	-0.28798434
90	0xb9e95a8a	-0.0004450868
91	0xbdbf6183	-0.09344771
92	0x3e1e565b	0.1546263
93	0xbe04d687	-0.1297246
94	0x3e6f023d	0.23340698
95	0xbd6ba885	-0.05753376
96	0xbcfceb1e	-0.030873831
97	0x3e2e28ca	0.17007747
98	0xbdd36cbc	-0.10323474
99	0xbe887024	-0.26648057
100	0xbdd64294	-0.104619175
101	0xbd874683	-0.06605246
102	0xbde7ea0a	-0.11323936
103	0xbde361d8	-0.111026466
104	0xbd994573	-0.074839495
105	0x3d7d8a08	0.061899215
106	0x3e4800e4	0.1953159
107	0xbdab5f0c	-0.08367738
108	0x3cb8d819	0.02256398
109	0xbd0722f6	-0.032992326
110	0xbe17961a	-0.14803353
111	0x3de10d11	0.1098882
112	0x3d5816aa	0.05275599
113	0xbe3f6344	-0.1869021
114	0x3dc21f6c	0.094786495
115	0xba19964b	-0.0005858882
116	0x3daf99f0	0.08574283
117	0xbde6b864	-0.112656385
118	0xbd83cdc5	-0.06435732
119	0xbdd240cb	-0.102662645
120	0x3de312f4	0.110875994
121	0xbd731f9a	-0.05935631
122	0xbe73baee	-0.23801777
123	0xbe21f949	-0.15817751
124	0xbe0ee10f	-0.1395304
125	0xbda15508	-0.078775465
126	0xbe594846	-0.21218976
127	0xbc7778dc	-0.015104499
128	0x3d325b43	0.043544065
129	0x3d5c0ed0	0.053725064
130	0xbd924174	-0.071413904
131	0xbe4051d6	-0.18781218
132	0xbb903894	-0.004401276
133	0xbdc1a299	-0.09454841
134	0x3df453a6	0.11930017
135	0x3d92637d	0.07147882
136	0xbea675f4	-0.32511866
137	0xbe26c899	-0.1628746
138	0xbe1125a3	-0.14174514
139	0xbda39246	-0.07986884
140	0xbcf3d681	-0.02976537
141	0x3d15c4a0	0.03656447
142	0xbe1fd89e	-0.15609977
143	0xbd140a9b	-0.036142927
144	0x3e1ed27d	0.15509982
145	0xbd16b692	-0.036795206
146	0xbd29ca7a	-0.041452862
147	0xbdb0b8ec	-0.08629021
148	0xbe23c2d5	-0.15992291
149	0xbcc0833b	-0.023500076
150	0x3e0da137	0.1383103
151	0x3d51a799	0.051185224
152	0xbdb1398a	-0.08653553
153	0x3e1c2c2a	0.15251222
154	0x3e99b3fd	0.30020133
155	0xbdb32ddb	-0.087489806
156	0x3b9da778	0.0048112236
157	0xbdf21674	-0.11820689
158	0x3e352ab7	0.17692076
159	0x3dfb08f5	0.12257568
160	0xbda238e6	-0.07921009
161	0xbc1107be	-0.008851944
162	0x3ceed7b6	0.029155593
163	0xbe6d2b28	-0.23160994
164	0x3d880a19	0.06642551
165	0xbd1a8ad1	-0.037730042
166	0x3c99a0c6	0.01875342
167	0xbd92816d	-0.07153592
168	0x3d9a816f	0.07544219
169	0x3e3b93f3	0.18318157
170	0x3d9d6d3a	0.07686849
171	0xbcc5a4ae	-0.024126377
172	0x3dd17776	0.102278635
173	0x3d68cb54	0.056834534
174	0x3e0174ee	0.12642261
175	0x3dd6d4bd	0.10489795
176	0xbe221fc7	-0.15832435
177	0xbde7fbe2	-0.1132734
178	0x3d8f1e54	0.069882065
179	0x3e4d1b0b	0.20029847
180	0x3dbcd86a	0.09220965
181	0x3d8902e5	0.06690005
182	0xbdd85a27	-0.1056407
183	0x3cecb3de	0.028894361
184	0xbe1f7e4a	-0.15575519
185	0xbbc52aa1	-0.0060170447
186	0xbd9ad63d	-0.07560394
187	0xbd4b4b5b	-0.04963241
188	0xbdd82026	-0.10553007
189	0x3d53b509	0.05168632
190	0x3b4fcb7e	0.0031706984
191	0xbe2bb96e	-0.16769955
192	0x3d78ec5c	0.060772285
193	0xbd5600d1	-0.052246872
194	0x3e25b3c5	0.16181858
195	0xbdf565b6	-0.119822904
196	0xbd678f53	-0.05653317
197	0xbd703e56	-0.0586532
198	0x3d2bd1dc	0.041948184
199	0xbb875074	-0.004129464
200	0x3da9eebf	0.0829749
201	0xbd44dc00	-0.04806137
202	0xbdff45d6	-0.12464492
203	0xbdd40a6f	-0.103535526
204	0x3bbb9304	0.0057243127
205	0xbc8af7eb	-0.01696392
206	0x3d966bd4	0.07344785
207	0x3df773d1	0.12082637
208	0x3d0adf52	0.03390438
209	0x3e01e97b	0.12686722
210	0xbcc9ccb9	-0.024633752
211	0xbe50490b	-0.20340364
212	0xbcdfab3a	-0.027303327
213	0x3d04d12e	0.03242605
214	0x3d951826	0.072799966
215	0xbcc0bc6e	-0.02352735
216	0x3d5be148	0.05368164
217	0x3ddb6de8	0.10714322
218	0xbd835fa2	-0.06414725
219	0x3dc3d5d9	0.095622726
220	0xbdd14ea9	-0.10220081
221	0xbe1633b2	-0.14668158
222	0xbe11bdf8	-0.14232624
223	0x3da05828	0.078293145
224	0x3d1c3961	0.03814066
225	0xbe09dec1	-0.1346388
226	0xbd413f6f	-0.047179636
227	0x3e6c97e0	0.2310481
228	0xbd71576b	-0.05892126
229	0x3da83477	0.08213132
230	0x3de43277	0.11142438
231	0x3e745356	0.23859915
232	0x3b84b1de	0.0040495237
233	0xbe945818	-0.2897346
234	0xbd70abe3	-0.058757674
235	0x3e6f28fc	0.23355478
236	0xbe324f27	-0.17413007
237	0x3da32577	0.0796613
238	0x3e282aa4	0.16422516
239	0xbe8baffb	-0.272827
240	0xbcfd5296	-0.03092317
241	0xbd49e400	-0.049289703
242	0x3cc4ebc5	0.024038205
243	0x3da4da2b	0.08049425
244	0xbce645a3	-0.028109377
245	0x3e6f4fbd	0.23370261
246	0xbd0e4333	-0.034732055
247	0xbd47fe96	-0.048826776
248	0xbe05d7b4	-0.13070565
249	0x3e2dc03e	0.16967866
250	0xbc0babba	-0.0085248295
251	0x3b31ea14	0.0027147578
252	0x3c838e52	0.016059075
253	0x3ca28392	0.019838128
254	0x3e97fa3f	0.2968311
255	0x3de4d2ff	0.11173057

bias f4 [64]
0	0x3cc4b8e7	0.02401395
1	0xbd1456cb	-0.036215585
2	0x3d5cb290	0.053881228
3	0xbdc56fa5	-0.09640435
4	0x3afdeba0	0.001937259
5	0xbbbe1f32	-0.0058020586
6	0xbdd6ac97	-0.10482138
7	0x39cd0f9d	0.0003911228
8	0x3d1ca08d	0.03823905
9	0xbdc87b4d	-0.09789143
10	0x3d9a9575	0.07548038
11	0x3d7ddbe0	0.061977267
12	0x3e069673	0.1314333
13	0xbd0379af	-0.03209847
14	0xbd97ad0d	-0.07406054
15	0x3d48794c	0.048943803
16	0x3de04d11	0.10952199
17	0xbdab012a	-0.083498314
18	0xbdbe84e1	-0.093026884
19	0xbc153d42	-0.009108843
20	0x3db80e94	0.089871556
21	0x3c158ea7	0.009128249
22	0xbe08d680	-0.13363075
23	0xbd5a3ea2	-0.053282388
24	0xbdacef9e	-0.08444141
25	0x3da3265a	0.07966299
26	0xbda5984b	-0.08085688
27	0x3db24cc2	0.08706047
28	0x3d634651	0.05548698
29	0x3ba84d89	0.005136196
30	0xbd00ba27	-0.03142753
31	0x3d6456d9	0.055746887
32	0xbd9d0f45	-0.07668928
33	0xbd448c12	-0.047985144
34	0x3dc50498	0.09620017
35	0xbd04e64d	-0.032446194
36	0x3cfa845c	0.030580692
37	0x3de6ef18	0.11276072
38	0xbdefb7f4	-0.11705008
39	0x3d1a386e	0.03765147
40	0xbbad050d	-0.005280143
41	0xbda76f64	-0.08175543
42	0x3dffebb2	0.12496127
43	0x3d9ac4f1	0.07557095
44	0xbd0608cf	-0.032723244
45	0xbb61174c	-0.0034346161
46	0x3db9e27b	0.09076401
47	0xbca97b8b	-0.020688793
48	0x3da279ae	0.07933365
49	0xbda38c93	-0.07985797
50	0xbdc85984	-0.09782699
51	0x3d94ae7f	0.07259845
52	0x3d90e528	0.07074958
53	0xbdd521e6	-0.10406856
54	0xbd2abb81	-0.041682724
55	0x3d8437fa	0.06455989
56	0x3d7225ad	0.05911796
57	0x3d911b49	0.07085282
58	0x3d9b955f	0.0759685
59	0xbd660d8f	-0.056165274
60	0x3c484f24	0.0122259
61	0x3df9e64a	0.12202127
62	0xbdbd8ddb	-0.092555724
63	0x3dc74893	0.09730639

weight f4 [3, 64]
0	0x3df35c70	0.118828654
1	0xbd0868d8	-0.03330311
2	0x3e3d8f25	0.18511637
3	0xbdd67b35	-0.104727186
4	0xbe386d8a	-0.18010536
5	0xbe4a2b43	-0.19743066
6	0x3e4de1e1	0.20105697
7	0xbe6450fa	-0.22296515
8	0x3e33b2ce	0.17548677
9	0xbe660240	-0.22461796
10	0x3e303eb9	0.17211427
11	0xbe2d51d3	-0.16925745
12	0x3e1160b9	0.14197053
13	0xbdf3e9ff	-0.119098656
14	0xbe836ddd	-0.25669757
15	0xbc212846	-0.009836262
16	0xbda1bb4a	-0.07897051
17	0x3e46e4c1	0.194232
18	0x3e179508	0.14802945
19	0xbe356f7e	-0.17718312
20	0xbe528268	-0.20557559
21	0xbd998a40	-0.07497072
22	0x3ccb73b4	0.024835445
23	0xbde3e5e3	-0.11127832
24	0x3d8f7b55	0.070059456
25	0x3c7b6b3c	0.015345391
26	0x3da4004b	0.080078684
27	0x3df1ad6c	0.11800656
28	0xbe2eff94	-0.17089683
29	0xbdf20b0c	-0.11818513
30	0xbe48a34f	-0.19593547
31	0x3dbd8962	0.09254719
32	0x3e3db6ac	0.18526715
33	0xbe33d930	-0.17563319
34	0xbda8b37a	-0.082373574
35	0x3dfae753	0.12251153
36	0x3e034292	0.12818363
37	0x3e1b2f17	0.15154682
38	0x3da788d6	0.08180396
39	0x3cf56bde	0.029958662
40	0xbd8650de	-0.06558393
41	0x3e4c9a01	0.19980623
42	0xbd2145a4	-0.039373055
43	0x3de7726a	0.113011196
44	0x39d24731	0.00040107363
45	0x3e1e5c0a	0.15464798
46	0xbe40cfb1	-0.18829228
47	0xbe0e4e00	-0.13896942
48	0xbe2ed1e2	-0.17072251
49	0x3e62574a	0.2210361
50	0xbe0da6ee	-0.1383321
51	0xbe8208c3	-0.2539731
52	0xbe32714c	-0.17426032
53	0x3daa1ad9	0.08305902
54	0x3e65f33f	0.22456072
55	0x3e06d79c	0.13168186
56	0x3e86d30e	0.26332897
57	0xbe32dcaa	-0.17466989
58	0x3e7a41f1	0.24439217
59	0x3e5a41cd	0.21314164
60	0x3cd23d93	0.025664127
61	0xbe1aed20	-0.15129519
62	0xbe04190a	-0.12900177
63	0xbe4b1e1c	-0.19835705
64	0x3def3387	0.1167975
65	0x3e681cd3	0.22667246
66	0x3e029740	0.1275301
67	0xbdf6917c	-0.12039468
68	0xbe66ff09	-0.22558226
69	0x3dccbbaf	0.09996735
70	0xbd84d1c8	-0.06485325
71	0xbd21ed64	-0.039533034
72	0x3c94d473	0.01816771
73	0x3b6e7aed	0.0036389187
74	0x3dea4a2b	0.11439928
75	0xbdc48530	-0.09595716
76	0x3e243eee	0.16039631
77	0xbe8335c4	-0.25626957
78	0x3e57b4e8	0.21065104
79	0x3d91f5d9	0.0712697
80	0xbe7e066e	-0.2480714
81	0x3d8fe45e	0.070259795
82	0xbd8ccd29	-0.06875069
83	0x3d952a8a	0.07283504
84	0x3e07ac3e	0.13249299
85	0xbe1c7509	-0.1527902
86	0xbdcb9f24	-0.09942463
87	0xbe2b0929	-0.16702713
88	0x3e36ab06	0.17838678
89	0xbe683440	-0.22676182
90	0xbe280ba4	-0.1641069
91	0x3e33c86c	0.17556924
92	0x3dce7b9b	0.100821696
93	0x3e44027b	0.19141571
94	0x3e808b27	0.25106165
95	0xbe5e572e	-0.21712944
96	0xbda1ba79	-0.07896895
97	0x3d96cc92	0.073632374
98	0x3e80eb14	0.2517935
99	0xbd0461e9	-0.032319937
100	0xbd16ed50	-0.036847413
101	0x3d9e330a	0.07724579
102	0x3dbf79f4	0.093494326
103	0xbe74f89a	-0.23922959
104	0xbe421358	-0.18952692
105	0xbcbb4aa0	-0.022862732
106	0x3d10a603	0.03531457
107	0x3e44ca1f	0.19217728
108	0x3cd3d528	0.025858477
109	0x3e529677	0.2056521
110	0x3e03a1fc	0.12854761
111	0xbe0ae701	-0.13564683
112	0xbe0365e3	-0.12831835
113	0x3e4b7e1c	0.19872326
114	0x3e22b11b	0.15887873
115	0x377737a0	1.47352985e-05
116	0x3e24a93f	0.16080187
117	0x3e24956e	0.16072628
118	0x3dac3ba7	0.08409815
119	0xbde844b9	-0.11341233
120	0xbe277b5f	-0.16355656
121	0xbe330c6f	-0.17485212
122	0xbe264dfa	-0.16240683
123	0x3e7a73fb	0.24458306
124	0x3e3d879d	0.18508764
125	0xbdd5582c	-0.10417208
126	0x3e9299bb	0.28632912
127	0xbd336df1	-0.04380602
128	0xbdc51095	-0.096223034
129	0x3dc64c55	0.09682528
130	0xbe32e2d4	-0.1746934
131	0xbe24de08	-0.16100323
132	0x3db36d26	0.08761053
133	0xbd99447d	-0.07483766
134	0x3e0a25d4	0.13490993
135	0xbdb03aec	-0.086049885
136	0xbe235420	-0.1595006
137	0xbe3796c8	-0.17928612
138	0x3e422b7a	0.18961897
139	0x3d663c9d	0.05621015
140	0xbe29833e	-0.16553971
141	0xbde4df86	-0.11175446
142	0xbe1eed59	-0.15520228
143	0x3e502d69	0.20329823
144	0x3e0f8716	0.14016375
145	0x3dc7db17	0.09758585
146	0x3dfccbe5	0.12343577
147	0x3d81c55d	0.06336472
148	0x3e073d2c	0.13206929
149	0xbe2774e5	-0.16353185
150	0x3e44b480	0.1920948
151	0x3dcc0184	0.099612266
152	0x3ddc4658	0.107556045
153	0x3e2c9d39	0.1685685
154	0x3c5bece7	0.013423181
155	0xbde978b0	-0.113999724
156	0xbdb09629	-0.08622391
157	0xbe64352b	-0.22285907
158	0x3de91f7c	0.11382958
159	0x3da2d77e	0.07951258
160	0x3d82f7ba	0.06394906
161	0x3dbbf3e7	0.0917738
162	0x3e316aed	0.17325945
163	0xbe75b661	-0.23995353
164	0xbe5bcef6	-0.21465668
165	0xbe3119af	-0.17294954
166	0x3e3d2201	0.18470003
167	0xbe671c53	-0.22569399
168	0x3d693d49	0.05694321
169	0x3e0ed214	0.13947326
170	0xbdc19610	-0.0945245
171	0xbd81127b	-0.06302353
172	0x3e473ccc	0.19456786
173	0xbe3aceed	-0.18242998
174	0xbe3c4681	-0.1838627
175	0xbd917ebd	-0.071042515
176	0xbddec58a	-0.10877521
177	0xbdf3f08a	-0.119111136
178	0xbb9afc9f	-0.004729822
179	0x3e78bf55	0.24291737
180	0x3ded276c	0.11579785
181	0x3df68abd	0.12038181
182	0x3e0e843e	0.13917634
183	0xbe2ec0ed	-0.17065783
184	0x3d27b360	0.04094255
185	0x3d0de670	0.03464359
186	0x3e110dd5	0.14165433
187	0x3c5ba41a	0.013405824
188	0x3e60825d	0.2192473
189	0xbe0f2176	-0.13977608
190	0xbe1e1626	-0.15438136
191	0xbe334097	-0.17505108

bias f4 [3]
0	0x3bb46416	0.0055050952
1	0xbdd48dcf	-0.1037861
2	0x3d6f8243	0.058473837

weight f4 [64, 6]
0	0xbeb15990	-0.34638643
1	0x3cb8feca	0.02258243
2	0x3e894538	0.26810622
3	0x3efa2d23	0.48862562
4	0x3df5771d	0.1198561
5	0x3e4fb35f	0.20283268
6	0x3d6c85c4	0.057744756
7	0xbd61b6ff	-0.05510616
8	0x3dc15666	0.09440307
9	0xbeb629b3	-0.3557869
10	0x3edfad75	0.43687025
11	0xbe9cd47b	-0.3063086
12	0x3ed698fb	0.4191359
13	0xbd1e98a6	-0.038719796
14	0x3ea204ae	0.31644195
15	0xbd5f8243	-0.054567587
16	0x3e28342f	0.16426156
17	0x3e8bfd1d	0.27341548
18	0xbee79820	-0.4523325
19	0x3ed76424	0.4206859
20	0xbe50f4c1	-0.20405866
21	0xbe54f715	-0.2079738
22	0xbef415c0	-0.47672844
23	0x3df22341	0.118231304
24	0x3ef0df0f	0.4704518
25	0xbeb10b2a	-0.3457883
26	0x3d3861fb	0.045015316
27	0x3e3caa4b	0.18424337
28	0xbe941e24	-0.28929245
29	0x3d2165f1	0.03940386
30	0xbeb3f9e9	-0.35151604
31	0x3e98cc15	0.29843202
32	0xbdb53eea	-0.088498905
33	0x3eb1e71d	0.34746638
34	0xbef20639	-0.47270373
35	0x3e6dc1e6	0.23218498
36	0xbe35dcd1	-0.17760016
37	0x3eb3a496	0.35086507
38	0x3e5c2c92	0.21501377
39	0xbee571f8	-0.44813514
40	0xbe83ff78	-0.25780845
41	0x3d97fc82	0.07421209
42	0x3cfabbac	0.030607067
43	0x3ea82049	0.32837132
44	0x3ecddd76	0.40208024
45	0xbe5a3347	-0.21308623
46	0xbeef0f73	-0.46691474
47	0x3e094ae2	0.13407472
48	0xbe081e57	-0.13292824
49	0x3e628c76	0.22123894
50	0x3f0b3ce9	0.54389817
51	0xbe1c0313	-0.15235548
52	0x3d64f59d	0.055898298
53	0x3ee3eaa7	0.44514963
54	0xbe92927e	-0.2862739
55	0x3f1d7a67	0.61514896
56	0x3ec79846	0.38983363
57	0x3e747442	0.23872474
58	0x3e84fe8a	0.25975448
59	0x3e8a99da	0.27070504
60	0x3e6504d6	0.22365126
61	0x3e80c246	0.2514822
62	0x3b48b95f	0.0030628068
63	0x3d47caaa	0.04877726
64	0xbc902623	-0.01759631
65	0xbe5cb8b1	-0.21554829
66	0xbd736b2a	-0.05942837
67	0x3ec33aaf	0.3813071
68	0xbda6b511	-0.081400044
69	0xbe03ad8e	-0.12859175
70	0xbdc5b99c	-0.09654543
71	0xbdaee17e	-0.08539103
72	0xbd4a6b5b	-0.04941879
73	0xbe905901	-0.28192905
74	0x3e846905	0.25861374
75	0xbe582c79	-0.21110715
76	0x3edc9796	0.430844
77	0xbe804315	-0.2505118
78	0xbeb38fc3	-0.3507062
79	0xbeb013fd	-0.3439025
80	0x3d922c37	0.071373396
81	0x3ebea2cd	0.37233582
82	0x3e7924d7	0.2433046
83	0x3e117860	0.14206076
84	0xbef86051	-0.48510984
85	0xbe2f29ff	-0.17105864
86	0xbe26619f	-0.16248177
87	0xbd97ffa6	-0.07421808
88	0xbea5f728	-0.32415128
89	0x3d8e8fe9	0.069610424
90	0x3e7f25b4	0.24916726
91	0x3f1dc0da	0.61622393
92	0x3f63ec05	0.8903201
93	0x3e67197e	0.22568318
94	0x3dc32617	0.095287494
95	0x3ed3e463	0.41385183
96	0x3d42dae8	0.047572047
97	0x3ebddf10	0.37084246
98	0x3f108e75	0.5646737
99	0xbee25908	-0.4420855
100	0x3d2991c9	0.041398797
101	0x3ebf4da1	0.37363914
102	0xbb7c8077	-0.003852872
103	0x3ed0f258	0.40809894
104	0x3dfe80c9	0.124269076
105	0xbed5c847	-0.41754362
106	0xbe1bc97f	-0.15213583
107	0x3e27b92a	0.16379228
108	0x3e62ed9a	0.2216095
109	0x3f24dbc4	0.64397836
110	0xbe1f8cf7	-0.15581118
111	0x3ed9afc3	0.42516908
112	0xbda40c20	-0.08010125
113	0xbd90ce54	-0.07070604
114	0x3d84eab4	0.064900786
115	0xbe22f801	-0.15914918
116	0xbe9a376a	-0.30120403
117	0xbdb0d9cf	-0.08635294
118	0x3e806f0a	0.25084716
119	0xbef2152b	-0.47281775
120	0xbe2285e7	-0.15871392
121	0x3dad5e71	0.08465279
122	0xbede5f50	-0.43432093
123	0x3ef0aae9	0.47005394
124	0xbe8df04d	-0.27722397
125	0xbe47caff	-0.1951103
126	0x3e9d548b	0.30728564
127	0x3ecdde80	0.40208817
128	0x3d92d3b4	0.071692854
129	0x3e8d0607	0.2754366
130	0xbe86f4b1	-0.2635856
131	0xbd1503f6	-0.03638073
132	0xbdf96fb7	-0.12179511
133	0xbe69c289	-0.22828116
134	0x3de7bd3f	0.11315393
135	0x3e5da583	0.21645169
136	0xbe5b9436	-0.21443257
137	0xbc5dfb5f	-0.013548701
138	0x3c7eef54	0.01555999
139	0x3eb1a4c1	0.3469601
140	0xbe860f78	-0.26183677
141	0x3ee0509a	0.43811494
142	0xbe085047	-0.13311873
143	0x3e2484b7	0.16066252
144	0xbef9bb7a	-0.48775846
145	0xbea01997	-0.31269524
146	0x3d9ba16b	0.075991474
147	0xbd2655d9	-0.040609214
148	0x3e276bc9	0.1634971
149	0x3ef26af7	0.47347233
150	0xbcc62b79	-0.024190651
151	0x3ea75389	0.3268092
152	0xbf146303	-0.5796358
153	0x3e98416d	0.29737416
154	0xbeb23c59	-0.34811667
155	0xbefc28e8	-0.4924996
156	0x3e2ddf06	0.16979608
157	0x3e3e6bdd	0.18595834
158	0x3e0e7f0c	0.13915652
159	0xbeacb493	-0.33731517
160	0xbea5be6a	-0.32371837
161	0x3e4271fe	0.18988797
162	0x3e9fc1f9	0.31202677
163	0xbdf97b13	-0.12181678
164	0xbc6ceb74	-0.014460433
165	0xbecc273b	-0.3987368
166	0xbe832185	-0.2561151
167	0xbe48ddc8	-0.19615853
168	0xbd82ebd2	-0.063926354
169	0x3dd4ebe5	0.10396556
170	0x3e8c45e4	0.27397072
171	0x3e152ccd	0.14567871
172	0x3e93545a	0.28775293
173	0x3cf2be06	0.029631626
174	0xbe293c31	-0.16526867
175	0x3f1bb857	0.60828155
176	0xba029330	-0.0004981039
177	0x3eaa9127	0.33313867
178	0xbecc9a0c	-0.39961278
179	0x3e87db80	0.26534653
180	0x3ecb9ea4	0.3976947
181	0x3ee905b6	0.4551217
182	0xbe4d161c	-0.20027965
183	0xbea7156e	-0.32633537
184	0x3d48b086	0.04899647
185	0xbd5385f8	-0.051641434
186	0x3f0a2599	0.5396362
187	0xbead0849	-0.33795384
188	0xbecc3b98	-0.39889216
189	0x3db982d3	0.09058156
190	0xbe46d816	-0.19418368
191	0xbebe7e8e	-0.3720593
192	0x3eb724f9	0.35770395
193	0xbd59801c	-0.05310069
194	0x3ded01bc	0.115725964
195	0xbe2b888e	-0.1675131
196	0x3ee6cd27	0.45078394
197	0xbe9272bc	-0.2860316
198	0x3e645d09	0.22301115
199	0x3d18f0fc	0.037339196
200	0xbe3b0514	-0.18263656
201	0xbe88c64c	-0.26713789
202	0xbefbe4e3	-0.49198064
203	0xbe9b9b41	-0.30391887
204	0xbea04b52	-0.31307465
205	0xbf9e2af3	-1.2356857
206	0xbec1bc31	-0.3783889
207	0xbbf1e62a	-0.007382174
208	0x3d965030	0.07339513
209	0xbe86dd5f	-0.26340768
210	0xbee229cf	-0.44172522
211	0xbe5936a6	-0.21212253
212	0x3ef2570c	0.47332036
213	0x3e388dc6	0.18022832
214	0x3ec1dc9b	0.3786362
215	0x3e9cac91	0.30600408
216	0x3ed9c3b5	0.42532125
217	0xbe784e66	-0.24248657
218	0xbeb697c2	-0.35662657
219	0x3d9de726	0.07710104
220	0x3ecb52ed	0.39711705
221	0xbe602d57	-0.21892296
222	0x3ddda4e7	0.10822468
223	0xbe801d19	-0.250222
224	0x3ec83651	0.3910394
225	0xbead1daf	-0.3381171
226	0xbe02adc9	-0.12761606
227	0x3c69397c	0.014234897
228	0xbe6f7530	-0.23384547
229	0x3d458224	0.048219815
230	0xbea4a5f9	-0.32157877
231	0x3ef2c640	0.47416878
232	0xbe379c4e	-0.1793072
233	0x3dd48fb1	0.103789695
234	0xbf0c3333	-0.54765624
235	0xbd7fb5b0	-0.06242913
236	0x3e525425	0.20539911
237	0xbe64f3c1	-0.2235861
238	0xbdb54cfb	-0.088525735
239	0xbc47b947	-0.01219017
240	0x3e5fb122	0.21844915
241	0x3e765ef0	0.24059653
242	0x3e07a2d2	0.13245705
243	0xbe278204	-0.16358191
244	0x3da05be0	0.07830024
245	0xbee4d4e9	-0.44693688
246	0xbe9add04	-0.30246747
247	0xbf11977d	-0.5687178
248	0x3e0f02fd	0.13965984
249	0x3df5d5c6	0.12003665
250	0x3eccb383	0.39980707
251	0x3e94f0e2	0.2909003
252	0x3cb7b161	0.022423448
253	0xbd903f87	-0.07043367
254	0x3dbccd34	0.09218827
255	0xbe88f9a1	-0.26752952

bias f4 [64]
0	0xbda9c9b0	-0.08290422
1	0x3e7374bb	0.23774998
2	0xbeb841ce	-0.35987705
3	0xb9769818	-0.00023517048
4	0xbe130f70	-0.14361358
5	0x3eab10a2	0.33411127
6	0x3e9f71b8	0.31141448
7	0xbc690f70	-0.014224872
8	0x3e1c1af3	0.15244655
9	0x3ea85ce2	0.32883364
10	0xbeae1598	-0.3400085
11	0xbcda67ab	-0.02666076
12	0x3ea2827e	0.31740183
13	0xbd13eda8	-0.03611532
14	0xbe8feabb	-0.28108773
15	0x3e84f1ea	0.25965816
16	0x3ea288f8	0.31745124
17	0x3e43f0ad	0.1913478
18	0x3ebb621a	0.36598283
19	0xbcc5d864	-0.024151035
20	0xbe48434c	-0.19556922
21	0xbec5b740	-0.3861637
22	0x3e5be5e5	0.21474417
23	0xbd8ed8df	-0.06974959
24	0x3ecdb707	0.401787
25	0x3daa27fe	0.08308409
26	0x3e49d81e	0.19711348
27	0xbbf119a9	-0.0073577953
28	0xbdb5e6f3	-0.08881941
29	0xbe1dbd31	-0.15404202
30	0xbebcc6f8	-0.3687055
31	0xbec171d6	-0.37782162
32	0xbe3b4932	-0.1828964
33	0xbea88db4	-0.3292061
34	0xbec181bb	-0.3779429
35	0x3e496af6	0.19669709
36	0xbe4d468f	-0.20046447
37	0xbbd210ca	-0.006410693
38	0xbd4fcb58	-0.050731033
39	0xbe9a916e	-0.3018908
40	0xbe16df7f	-0.14733694
41	0xbe5b347d	-0.21406741
42	0x3dabe31f	0.08392929
43	0x3ed6f950	0.41987085
44	0xbd47f6f2	-0.04881949
45	0x3d85c584	0.06531814
46	0x3e581d42	0.21104911
47	0x3e2e9f85	0.1705304
48	0x3d224c2d	0.039623428
49	0xbe1e4824	-0.15457207
50	0xbe118b6f	-0.14213346
51	0xbc5ff8ef	-0.01367019
52	0x3ed50d66	0.41611785
53	0x3d877ce3	0.06615617
54	0x3e8a4514	0.27005827
55	0x3e5692fb	0.20954506
56	0x3e47dadb	0.1951708
57	0xbb2eb65c	-0.0026658988
58	0xbd8bf045	-0.06832937
59	0xbda85a93	-0.08220401
60	0x3e7c788a	0.24655357
61	0x3eae6bbc	0.3406657
62	0x3e803eb0	0.25047827
63	0xbeab1990	-0.3341794

weight f4 [64, 64]
0	0xbf1cc3d6	-0.6123632
1	0x3e15c076	0.146242
2	0x3e5c729e	0.21528098
3	0xbde2106c	-0.110382885
4	0xbc291d0b	-0.010321866
5	0xbcd22686	-0.025653135
6	0xbd169618	-0.036764234
7	0x3c708657	0.014680467
8	0xbe4e5862	-0.20150903
9	0xbcd492ed	-0.025948966
10	0x3e6a03be	0.2285299
11	0x3e565127	0.20929395
12	0xbdc2ea39	-0.09517331
13	0xbecfa6d1	-0.40556958
14	0x3d9c1d2d	0.07622752
15	0xbd352811	-0.044227663
16	0xbe11b1b9	-0.14227952
17	0xbde72c34	-0.11287728
18	0xbd35c508	-0.044377357
19	0x3e5a84ba	0.21339694
20	0x3d296da7	0.04136434
21	0x3e8ad617	0.27116463
22	0xbd9130e8	-0.07089406
23	0xbe17a0c0	-0.14807415
24	0xbe93f818	-0.28900218
25	0x3ebd4f2a	0.3697446
26	0xbdbe07d1	-0.092788346
27	0x3ea4a4a4	0.3215686
28	0xbcb68fa1	-0.022285284
29	0xbd1fb444	-0.038990274
30	0x3e25b42b	0.1618201
31	0x3e37e3b4	0.17957956
32	0x3ed532b7	0.41640255
33	0x3cd40aaf	0.025884
34	0xbd865e61	-0.0656097
35	0xbea82e3d	-0.32847777
36	0x3ec1fa26	0.3788616
37	0xbb9b1e25	-0.004733818
38	0xbe9ab10d	-0.30213204
39	0xbcd80330	-0.026368707
40	0x3e65b3aa	0.22431818
41	0xbe5217b5	-0.20516856
42	0x3dc818f3	0.09770384
43	0xbca94a3a	-0.020665277
44	0xbc92b6f1	-0.017909499
45	0xbe49ff7d	-0.19726367
46	0xbe32ef29	-0.17474045
47	0xbd9c937b	-0.07645317
48	0x3d2b6f53	0.041854214
49	0xbe9b1057	-0.30285904
50	0x3e158bd9	0.14604129
51	0xbec19e5b	-0.37816128
52	0xbd0219b8	-0.03176281
53	0x3d998df0	0.074977756
54	0xbae76d4b	-0.0017656473
55	0x3ce37f8e	0.027770784
56	0x3d915a0b	0.070972525
57	0x3d0a37d4	0.033744648
58	0x3e28c979	0.16483106
59	0x3e240d67	0.16020738
60	0xbe44df1f	-0.19225739
61	0xbe36452e	-0.17799827
62	0x3e9fa881	0.31183246
63	0x3e174446	0.14772138
64	0xbd07a199	-0.033113096
65	0x3de2fa4c	0.110828966
66	0x3d9f3c5d	0.07775185
67	0xbda312f5	-0.079626
68	0xbdad3ed8	-0.08459252
69	0xbe3442eb	-0.17603652
70	0xbe749e83	-0.23888592
71	0xbde283a3	-0.11060264
72	0x3b241ad5	0.0025040407
73	0xbe26e0b0	-0.16296649
74	0xbd9359ff	-0.071949
75	0xbdbaff55	-0.09130732
76	0x3d8add1e	0.06780456
77	0x3e2fbc38	0.17161644
78	0x3d369889	0.044579063
79	0xbde93fbf	-0.11389112
80	0xbe31fed4	-0.17382365
81	0xbddad943	-0.10685971
82	0xbcc365f9	-0.023852335
83	0x3e129bcd	0.14317246
84	0xbc700acb	-0.014651011
85	0xbd8133da	-0.06308718
86	0xbcffe129	-0.031235294
87	0xbd154b45	-0.036448736
88	0x3d4b6c90	0.04966408
89	0xbcaa7b09	-0.02081062
90	0x3ae10394	0.0017167204
91	0x3e18ea74	0.14933187
92	0x3d368a7e	0.04456567
93	0xbe244588	-0.16042149
94	0x3dee8b10	0.11647618
95	0x3d96b00a	0.073577955
96	0x3e589266	0.21149597
97	0x3df40b47	0.119162135
98	0x3e0e36dd	0.13888116
99	0xbe191bb4	-0.14951974
100	0x3e651a61	0.22373344
101	0x3c1ba358	0.009499393
102	0xbd42aa75	-0.04752584
103	0x3deeeba5	0.116660394
104	0x3db1eb83	0.086874984
105	0x3da180f6	0.078859255
106	0x3bdb9b67	0.006701875
107	0xbe293a53	-0.16526155
108	0x3cb3f8d0	0.021969229
109	0x3c87ca1f	0.016575871
110	0xbcfd69d6	-0.030934256
111	0xbdfbbcf9	-0.12291903
112	0x3cafe769	0.02147265
113	0x3d0bd74a	0.034140863
114	0xbdbbbf67	-0.091673665
115	0x3e1f3214	0.15546447
116	0xbdc514cf	-0.096231095
117	0x3dff1aad	0.1245626
118	0xbdc59fba	-0.09649606
119	0x3da4db3b	0.080496274
120	0x3d6aaf3d	0.057296026
121	0x3da7c5a3	0.08191993
122	0x3bf1e4cf	0.0073820124
123	0x3e750d84	0.23930937
124	0xbdcf818a	-0.101321295
125	0xbd011591	-0.031514708
126	0x3c8296ef	0.015941111
127	0xbd84f4ff	-0.06492042
128	0xbe8c87a4	-0.27447236
129	0xbe364126	-0.1779829
130	0x3d28baa4	0.04119362
131	0xbda47b9e	-0.080313906
132	0x3e0f66aa	0.14004007
133	0xbe06b5d4	-0.131553
134	0x3d9f6d85	0.07784561
135	0x3e9304c7	0.28714582
136	0xbe44e92e	-0.19229576
137	0x3dd6144c	0.1045309
138	0x3e1c7906	0.15280542
139	0x3de54951	0.111956246
140	0xbd7117e1	-0.058860663
141	0xbeb2b2a8	-0.3490193
142	0x3d86b94c	0.06578311
143	0xbc96b42e	-0.018396463
144	0xbd257dfc	-0.04040335
145	0x3d1ac7ab	0.037788074
146	0x3addae39	0.0016912884
147	0x3ca637ce	0.020290282
148	0x3e72d030	0.2371223
149	0x3eea4ab9	0.45760134
150	0x3c869bdf	0.016431747
151	0x3e4d6e27	0.20061551
152	0xbe83d308	-0.25746942
153	0x3f0c61a8	0.5483651
154	0x3da1a42e	0.07892643
155	0x3d299c7f	0.041409012
156	0x3d699203	0.057024013
157	0x3e8548fa	0.2603224
158	0x3ba102a5	0.0049136453
159	0x3dd9a040	0.106262684
160	0x3e6025c1	0.21889402
161	0x3d364e4d	0.044508267
162	0xbe444dd9	-0.19170322
163	0xbeac8bd7	-0.3370044
164	0x3e09318d	0.13397808
165	0xbdcc7242	-0.099827304
166	0xbdbc75ff	-0.092021935
167	0x3dba4dd1	0.090968736
168	0x3ce2493b	0.02762281
169	0xbe7a5703	-0.24447255
170	0xbcd4e2f4	-0.025987126
171	0x3deb33d7	0.11484497
172	0xbca336f3	-0.019923663
173	0x3d0d988e	0.034569316
174	0xbdcfd642	-0.10148288
175	0x3e019f85	0.12658508
176	0xbd18ac13	-0.037273478
177	0xbe61af0b	-0.2203943
178	0x3d082b7b	0.03324459
179	0xbea8221b	-0.3283852
180	0x3bfd5d44	0.0077320654
181	0x3dc10bcd	0.09426079
182	0x3d4021d0	0.046907246
183	0xbda801f1	-0.08203495
184	0xbcd0ea67	-0.025502397
185	0x3c457753	0.012052375
186	0xbe1f7912	-0.15573528
187	0xbc76929d	-0.015049604
188	0x3db51a55	0.08842913
189	0x3bce4f28	0.0062960573
190	0x3d8bc06d	0.06823812
191	0x3e21153f	0.15730761
192	0xbe05535e	-0.13020083
193	0xbc5f71e1	-0.013637991
194	0x3ef0665e	0.469531
195	0xbd1590e1	-0.03651512
196	0x3d1856e1	0.03719223
197	0xbd8f47bd	-0.06996105
198	0xbe7ea1c6	-0.24866399
199	0x3d86526e	0.06558691
200	0xbe16136a	-0.14655843
201	0x3b26d09d	0.0025453933
202	0x3d16407c	0.03668259
203	0xbcb1314f	-0.021629957
204	0xbe0c77d2	-0.13717583
205	0xbe386359	-0.18006648
206	0xbd17618f	-0.036958274
207	0xbda0af6d	-0.0784596
208	0x3db46701	0.08808709
209	0xbdb4ffab	-0.08837827
210	0x3d9049e6	0.07045345
211	0xbd2e183c	-0.04250358
212	0xbd99ed17	-0.075159244
213	0x3da47d56	0.080317184
214	0xbe0bcc81	-0.13652231
215	0xbc9947f2	-0.018711064
216	0x3c8e077f	0.017337559
217	0xbe0e20a7	-0.13879643
218	0xbd9dbcd4	-0.07702032
219	0x3e2994e8	0.1656071
220	0x3d92e7b0	0.07173097
221	0x3d5c9c35	0.053859908
222	0x3e2dba54	0.1696561
223	0x3e2182ca	0.15772548
224	0x3e0573de	0.13032481
225	0x3dd271de	0.10275625
226	0xbd25114e	-0.040299706
227	0xbdb72da8	-0.08944255
228	0x3e114aa0	0.14188623
229	0xbc6d53d1	-0.014485315
230	0xbe1522fa	-0.14564124
231	0x3daae811	0.083450444
232	0xbd0f2e16	-0.03495606
233	0x3d4ca4b0	0.049961746
234	0x3db4eb46	0.08833937
235	0xbe5a0220	-0.21289873
236	0xbd60f1b8	-0.05491802
237	0x3c4828b4	0.012216736
238	0xbe0ab162	-0.13544229
239	0x3d94c072	0.072632685
240	0xbcd04836	-0.025425058
241	0x3e796b31	0.24357297
242	0x3eb8d794	0.36101973
243	0xbe1f962a	-0.15584627
244	0xbdc87dee	-0.09789644
245	0xbdd81bac	-0.10552153
246	0xbc788ab3	-0.015169787
247	0x3d012d6f	0.03153747
248	0x3dac9d76	0.08428471
249	0x3e101d24	0.14073616
250	0x3e98993b	0.29804406
251	0xbde5aa45	-0.11214117
252	0xbd9ed5ea	-0.077556446
253	0xbd5a3cb2	-0.05328054
254	0x3c8ca377	0.01716779
255	0x3dfaeb8e	0.1225196

bias f4 [64]
0	0x3d0a48ce	0.03376084
1	0x3d0016c2	0.031271704
2	0xbd025124	-0.031815663
3	0x3dc88f21	0.09792925
4	0xbd8cc1cf	-0.068729036
5	0x3d9c04be	0.07618092
6	0x3d722616	0.059118353
7	0xbdc338de	-0.09532331
8	0xbe10cd66	-0.14140853
9	0x3db613e7	0.08890515
10	0xbc805355	-0.015664736
11	0x3d80a719	0.06281871
12	0x3d442e8f	0.047895964
13	0x3d027186	0.031846546
14	0x3ddf7b1a	0.10912152
15	0x3d05ce97	0.032667723
16	0xbe13b4ae	-0.14424393
17	0x3d9838e8	0.07432729
18	0xbe0c080c	-0.13674945
19	0xbdff797f	-0.124743454
20	0xbd084091	-0.0332647
21	0x3e0e423a	0.13892451
22	0x3c80fe93	0.01574639
23	0xbe2f5572	-0.17122439
24	0x3dc9524b	0.09830149
25	0xbd9830f4	-0.07431212
26	0x3e25062f	0.1611564
27	0xbdabba6c	-0.083851665
28	0xbd05caa2	-0.03266395
29	0x3cb82425	0.022478173
30	0x3d4ccd3a	0.050000407
31	0x3d85450c	0.0650731
32	0x3df9e52c	0.12201914
33	0x3d7c8105	0.06164648
34	0xbc82d3db	-0.015970161
35	0x3e017feb	0.12646453
36	0x3e345fa0	0.17614603
37	0xbde1f30a	-0.11032684
38	0x3df411fe	0.11917494
39	0x3da2f871	0.07957543
40	0x3c93a3e4	0.018022485
41	0x3d1958c3	0.037438165
42	0xbda9ff2d	-0.08300624
43	0xbded3756	-0.1158282
44	0xbce7d1f5	-0.028298358
45	0xbd83cb96	-0.06435315
46	0xbc18115e	-0.009281484
47	0x3df14cf7	0.11782258
48	0x3e024bfe	0.12724301
49	0x3bfdbd88	0.007743541
50	0x3cb629c5	0.022236714
51	0x3d12639e	0.035739534
52	0xbab3013f	-0.0013656988
53	0xbd653cc5	-0.055966157
54	0x3c488645	0.012239044
55	0xbd11af69	-0.035567675
56	0x3c030c3f	0.007998525
57	0x3da133c6	0.07871203
58	0x3bae8074	0.0053253714
59	0x3da80d24	0.082056314
60	0xbd26b667	-0.040701296
61	0xbda69f32	-0.08135833
62	0xbb1a20b5	-0.002351803
63	0x3dc83367	0.09775429
